oct8_deep_sdf/jackiel4_2dDeepSDF/experiment_/LatentCodes/1950.pth (torch, 121229 bytes, 1 tensors)

weight f4 [10000, 3]
0	0xbe9e4127	-0.30909082
1	0x3e17add0	0.14812398
2	0x3e9c5731	0.30535272
3	0x3e8f1193	0.27943096
4	0x3e670411	0.22560145
5	0x3e3cedcb	0.18450086
6	0xbea01ac8	-0.31270432
7	0x3f16c44c	0.58893275
8	0x3eed4c63	0.4634734
9	0xbe5d7726	-0.21627483
10	0x3e1d01bf	0.15332697
11	0xbc86b848	-0.016445294
12	0x3de60b94	0.11232677
13	0x3ef9e1c4	0.48805058
14	0xbe8c2861	-0.27374557
15	0x3e2731b1	0.1632755
16	0x3dac76be	0.08421086
17	0x3ed827b6	0.42217797
18	0xbe5161bd	-0.2044744
19	0x3f009f74	0.50243306
20	0xbbe222f8	-0.0069011413
21	0xbe56722c	-0.2094199
22	0x3d806ff8	0.06271356
23	0xbedb9561	-0.42887405
24	0x3eae6640	0.34062386
25	0xbdb7250f	-0.08942615
26	0xbf0a02eb	-0.539107
27	0x3ee3cb6d	0.4449114
28	0x3e25fca0	0.1620965
29	0xbcc289db	-0.023747375
30	0x3f01d0e8	0.5070939
31	0xbe357430	-0.17720103
32	0xbe685119	-0.22687186
33	0x3d872587	0.06598955
34	0x3ea14468	0.31497502
35	0xbf0b12f2	-0.54325783
36	0x3e6f82e6	0.23389778
37	0xbe549e17	-0.20763431
38	0x3d845496	0.06461446
39	0x3e3563a7	0.17713796
40	0xbd162439	-0.03665564
41	0xbddb5022	-0.107086435
42	0xbed74d77	-0.42051288
43	0xbe1df76b	-0.15426414
44	0xbbcbba32	-0.0062172646
45	0x3ee450c9	0.44592884
46	0xbe65c204	-0.22437292
47	0x3eb69d2d	0.3566679
48	0xbe34c138	-0.17651832
49	0x3ec9d50f	0.39420363
50	0x3e309e00	0.17247772
51	0x3dd874a6	0.10569124
52	0xbcef848d	-0.02923801
53	0x3f078bbb	0.52947587
54	0x3e96200f	0.29321334
55	0x3e4e3bfc	0.2014007
56	0x3e8cb871	0.27484468
57	0x3e58b9ae	0.21164581
58	0x3e3a3686	0.18184862
59	0x3ef45c9e	0.4772691
60	0xbed40d8e	-0.4141659
61	0x3cfe3560	0.03103131
62	0x3e3a0625	0.18166406
63	0xbea5d483	-0.32388696
64	0x3e473f73	0.19457798
65	0xbeb3baf1	-0.35103562
66	0xbe953725	-0.29143634
67	0x3c2935c8	0.010327764
68	0xbed79f4a	-0.42113715
69	0xbed741ba	-0.42042333
70	0xbd80befa	-0.06286426
71	0x3ec9edf5	0.3943936
72	0x3efa628d	0.48903313
73	0xbf082aae	-0.53190124
74	0x3e8ece1e	0.2789163
75	0x3e02d97b	0.12778275
76	0x3dd2d577	0.102946214
77	0x3dd4576a	0.103682354
78	0x3e4081f5	0.18799575
79	0x3ecb3497	0.3968856
80	0xbe722581	-0.23647119
81	0xbea623eb	-0.32449278
82	0xbebb6c0f	-0.3660588
83	0xbe01c888	-0.12674153
84	0xbe72489e	-0.23660514
85	0x3e79cdb6	0.24394879
86	0x3ecb048c	0.39651906
87	0x3f03fb13	0.51554984
88	0xbf0fdc61	-0.56195647
89	0x3e68ff54	0.2275365
90	0xbd53adb4	-0.051679328
91	0x3e77edc4	0.24211794
92	0x3ea673b9	0.32510164
93	0x3ef61426	0.48062247
94	0xbf051018	-0.5197768
95	0xbeb1a35f	-0.34694955
96	0xbde9c5a2	-0.114146486
97	0x3eb1d8c3	0.3473569
98	0xbed02bfc	-0.40658557
99	0xbe862cde	-0.26206106
100	0x3eb745ea	0.35795528
101	0x3e9e13b9	0.30874422
102	0xbe879cea	-0.26486903
103	0x3e65acff	0.22429274
104	0x3e2a0f18	0.1660732
105	0x3eb94892	0.3618818
106	0xbe543e9c	-0.20727009
107	0xbe783b44	-0.24241358
108	0xbe3f3b24	-0.18674904
109	0x3ec4fa06	0.38472003
110	0x3e1a3b6a	0.15061727
111	0x3dac6fcb	0.0841976
112	0x3e9234a7	0.28555796
113	0x3e8265cc	0.2546829
114	0x3de30d2f	0.11086499
115	0x3f06eb5c	0.5270288
116	0xbf1ec105	-0.62013274
117	0x3caa8c5e	0.020818885
118	0x3e86909b	0.262822
119	0xbe6c2cec	-0.23064011
120	0x3eb79d17	0.35862038
121	0x3ef65f4c	0.4811958
122	0xbf065f4a	-0.5248915
123	0x3e4527cc	0.19253463
124	0x3d99211b	0.074770175
125	0xbed95b66	-0.42452544
126	0xbedfe2f2	-0.43727833
127	0x3e2fe793	0.17178182
128	0xbe020fbe	-0.12701318
129	0x3ec3d12b	0.3824552
130	0x3dcdfaf5	0.10057632
131	0x3e5605fa	0.20900717
132	0x3df15191	0.11783136
133	0x3e9bfcb5	0.30466238
134	0x3e6fdce3	0.23424105
135	0x3de1013c	0.109865636
136	0x3f028830	0.50989056
137	0x3e0822cf	0.13294528
138	0x3cc95fc5	0.0245818
139	0x3e2ea720	0.1705594
140	0x3ecaff37	0.39647838
141	0x3e74c55d	0.23903413
142	0x3edc36a2	0.43010432
143	0xbecc4c02	-0.3990174
144	0x3d37004f	0.04467803
145	0xbe8946e7	-0.26811907
146	0x3de5ff3e	0.11230324
147	0xbf07e342	-0.5308114
148	0x3e14af17	0.14519916
149	0xbdeffbd8	-0.11717957
150	0x3eb71db2	0.35764843
151	0xbe351386	-0.17683229
152	0x3d09b7b2	0.03362245
153	0xbd2bc6e4	-0.041937724
154	0x3d9d06d1	0.07667316
155	0x3eb2fd29	0.3495877
156	0xbde07010	-0.10958874
157	0x3e5f80e7	0.21826516
158	0xbefcd37c	-0.493801
159	0xbec81133	-0.39075622
160	0x3ee0e97c	0.43928134
161	0xbdea1cb8	-0.11431259
162	0x3e3d3df0	0.18480659
163	0xbef8f437	-0.4862382
164	0xbd685ed9	-0.05673108
165	0x3e80aca5	0.25131717
166	0x3e15c7ce	0.14627
167	0x3e92b8fe	0.28656763
168	0x3e78f712	0.24313
169	0xbeb8e3b3	-0.3611122
170	0x3e7c1390	0.24616838
171	0x3f05a898	0.5221038
172	0xbf14e805	-0.58166534
173	0x3e9f0590	0.3105893
174	0x3e97b054	0.29626715
175	0xbea3567c	-0.3190192
176	0x3e641b67	0.22276078
177	0xbef6ee9a	-0.48228914
178	0xbe68f98f	-0.22751449
179	0xbf086831	-0.53283983
180	0xbd8c7700	-0.06858635
181	0x3ea8c900	0.3296585
182	0x3eacb5bc	0.33732402
183	0x3e2a07ac	0.16604489
184	0xbe423b6d	-0.18967982
185	0xbe6121c6	-0.2198554
186	0x3e8a8b59	0.2705944
187	0xbed72e6c	-0.42027605
188	0x3ddb867d	0.10719011
189	0xbeab84d2	-0.3349977
190	0xbcc1a0c3	-0.023636227
191	0xbee17993	-0.44038066
192	0x3ef35d2e	0.47532028
193	0xbda732a3	-0.08163955
194	0xbe4d7f98	-0.20068204
195	0xbece3b22	-0.4027949
196	0xbda8374d	-0.08213673
197	0xbea3e7e2	-0.3201285
198	0x3e745d17	0.23863636
199	0x3e955269	0.29164436
200	0x3e908e7f	0.28233716
201	0x3ad17e10	0.0015983004
202	0xbec878e2	-0.39154726
203	0x3ebd8785	0.37017456
204	0xbea86cec	-0.328956
205	0x3da0e5ce	0.07856332
206	0x3bc6d59b	0.006067944
207	0xbe5aa284	-0.21351057
208	0xbed2296a	-0.4104722
209	0xbe7ee0e6	-0.2489048
210	0x3ef7dfa5	0.48412815
211	0xbd4413b6	-0.04787036
212	0xbe924f20	-0.28575993
213	0xbe522417	-0.2052158
214	0xbec1bfdb	-0.37841687
215	0xbe59f05b	-0.21283095
216	0x3e9378ae	0.2880301
217	0xbe94c108	-0.2905352
218	0xbebacf6a	-0.3648637
219	0xbeb0c5d1	-0.34525922
220	0x3d29195a	0.041283943
221	0x3e82dc68	0.25558782
222	0x3d99a3c8	0.07501942
223	0x3d000004	0.031250015
224	0xbf0eb00a	-0.55737364
225	0xbe0a661f	-0.13515519
226	0x3eb41582	0.3517266
227	0x3e3093df	0.17243908
228	0x3e78ac88	0.24284565
229	0xbec0c183	-0.37647638
230	0xbece3994	-0.40278304
231	0x3ec8951d	0.39176264
232	0x3e97f602	0.29679877
233	0x3e06e33b	0.13172619
234	0x3e662fd3	0.22479181
235	0x3ecb5c44	0.3971883
236	0x3d3dc092	0.046326227
237	0xbe3f1318	-0.18659627
238	0xbe92310f	-0.28553054
239	0xbdc4bbee	-0.09606157
240	0xbec0ccd7	-0.3765628
241	0xbf122148	-0.57082033
242	0x3ebf0d39	0.37314776
243	0x3da7c027	0.08190947
244	0x3d8a7019	0.06759662
245	0x3eaba543	0.33524522
246	0x3e4546bc	0.19265264
247	0x3df570b7	0.11984389
248	0xbe89dbed	-0.26925603
249	0xbdecb408	-0.11557776
250	0x3ece8a77	0.40340015
251	0x3e491e8b	0.19640557
252	0xbec6aa00	-0.38801575
253	0xbe569601	-0.2095566
254	0x3e098007	0.13427745
255	0x3e4d47dc	0.20046943
