oct8_deep_sdf/jackiel4_2dDeepSDF/experiment_/LatentCodes/latest.pth (torch, 121239 bytes, 1 tensors)

weight f4 [10000, 3]
0	0xbe9c62d5	-0.30544153
1	0x3e197515	0.1498607
2	0x3e9c7410	0.305573
3	0x3e8d6206	0.27613848
4	0x3e59c1ef	0.21265386
5	0x3e3c5679	0.18392362
6	0xbea93cc0	-0.3305416
7	0x3f166e5b	0.5876214
8	0x3eeacc74	0.4585911
9	0xbe5afb50	-0.2138493
10	0x3e1f3826	0.15548763
11	0xbc40ae50	-0.011760309
12	0x3dd89ef7	0.10577195
13	0x3ef191fd	0.47181693
14	0xbe8f24d7	-0.27957794
15	0x3e273f8e	0.16332838
16	0x3db2c3d8	0.087287605
17	0x3ed36b62	0.41292864
18	0xbe4f6b17	-0.20255695
19	0x3efb9cd9	0.49143103
20	0xbbf1eee3	-0.007383214
21	0xbe49475f	-0.19656132
22	0x3d648a8d	0.055796195
23	0xbed45da0	-0.4147768
24	0x3eaaab6d	0.33333912
25	0xbdbb7e15	-0.091549076
26	0xbf09903d	-0.53735715
27	0x3ed7553a	0.4205721
28	0x3e27addd	0.16374917
29	0xbcb6f175	-0.022331933
30	0x3eff2041	0.49829295
31	0xbe33a2fd	-0.17542644
32	0xbe610910	-0.21976113
33	0x3d92b87b	0.07164093
34	0x3e9b2f53	0.30309543
35	0xbf09ae68	-0.5378175
36	0x3e6ae9fa	0.22940817
37	0xbe51b1e1	-0.20478012
38	0x3d86aabd	0.065755345
39	0x3e30d916	0.17270312
40	0xbd0702c3	-0.03296162
41	0xbde12356	-0.10993068
42	0xbed02994	-0.40656722
43	0xbe27c56e	-0.16383907
44	0xbbfae01e	-0.0076561114
45	0x3edddb60	0.43331432
46	0xbe74e9d8	-0.2391733
47	0x3eb1afd0	0.34704447
48	0xbe2b0912	-0.16702679
49	0x3ec21484	0.37906277
50	0x3e2b657a	0.16737929
51	0x3dd0e0db	0.10199138
52	0xbd0c7e9c	-0.03430043
53	0x3f049f89	0.5180593
54	0x3e97c394	0.29641402
55	0x3e412ee3	0.18865542
56	0x3e861beb	0.26193175
57	0x3e57e7a7	0.21084462
58	0x3e3732d1	0.17890479
59	0x3ee9a992	0.45637184
60	0xbed4e8f2	-0.41583973
61	0x3cb7ab0b	0.022420427
62	0x3e3ef4a5	0.18648012
63	0xbe9e8ded	-0.30967656
64	0x3e38a6bb	0.18032353
65	0xbeb666bf	-0.35625264
66	0xbe8f2787	-0.27959844
67	0x3b7b6e3d	0.0038365268
68	0xbed57cff	-0.41696927
69	0xbed190fa	-0.4093092
70	0xbd7dcaed	-0.061961103
71	0x3ec963c1	0.3933392
72	0x3eec9507	0.4620745
73	0xbeffa2dc	-0.4992894
74	0x3e8deaa5	0.27718082
75	0x3e01771f	0.12643097
76	0x3dc59e8f	0.09649383
77	0x3db33edd	0.087522246
78	0x3e44db91	0.19224383
79	0x3ec8773d	0.39153472
80	0xbe7020fe	-0.23450086
81	0xbea0bfb8	-0.3139627
82	0xbebb525b	-0.3658627
83	0xbe005d3c	-0.12535566
84	0xbe82a1e6	-0.25514144
85	0x3e76cf5d	0.2410254
86	0x3ebb5d24	0.36594498
87	0x3f006329	0.50151306
88	0xbf0c03bb	-0.5469319
89	0x3e83e1c8	0.25758195
90	0xbd3a6cf2	-0.045514055
91	0x3e64a3ab	0.2232806
92	0x3ea02211	0.3127599
93	0x3ef68d12	0.48154503
94	0xbf083525	-0.5320609
95	0xbebf0788	-0.37310433
96	0xbded4715	-0.115858234
97	0x3eb0f8f7	0.34564945
98	0xbed109e9	-0.40827873
99	0xbe8764e0	-0.2644415
100	0x3eb1ee66	0.34752196
101	0x3e997191	0.29969457
102	0xbe86606d	-0.26245442
103	0x3e663a9e	0.22483298
104	0x3e2b15e2	0.16707566
105	0x3eb44fab	0.35217032
106	0xbe50a347	-0.20374785
107	0xbe6e30e3	-0.23260836
108	0xbe4155a4	-0.18880326
109	0x3ec271d5	0.37977472
110	0x3e12c886	0.14334306
111	0x3da9ec5c	0.08297035
112	0x3e9250a0	0.28577137
113	0x3e828e9c	0.25499427
114	0x3dcb46ac	0.09925589
115	0x3efa2783	0.4885827
116	0xbf14594e	-0.5794877
117	0x3cdb4620	0.026766837
118	0x3e83141d	0.25601283
119	0xbe63449f	-0.22194146
120	0x3ebf1105	0.37317672
121	0x3ef972e8	0.4872048
122	0xbf0b9aef	-0.54533285
123	0x3e4801df	0.19531964
124	0x3d90860c	0.070568174
125	0xbed75ee7	-0.42064592
126	0xbedb60f2	-0.428474
127	0x3e2aaab3	0.16666679
128	0xbe0b6376	-0.1361216
129	0x3ebf62de	0.37380117
130	0x3dd67d28	0.104730904
131	0x3e4ddb45	0.20103176
132	0x3dfb91f8	0.12283701
133	0x3e9b5a94	0.30342543
134	0x3e6e3964	0.2326408
135	0x3def3b62	0.11681248
136	0x3f00ea94	0.5035794
137	0x3dfd1a2e	0.12358509
138	0x3ab15a58	0.0013530953
139	0x3e2a65b2	0.16640356
140	0x3ec5f4ed	0.38663426
141	0x3e61d30d	0.22053166
142	0x3edadaf5	0.42745176
143	0xbec81c98	-0.39084315
144	0x3d250154	0.04028447
145	0xbe85f056	-0.26159924
146	0x3de40c81	0.111351974
147	0xbf068727	-0.52549976
148	0x3e102c2f	0.14079355
149	0xbdf15757	-0.11784237
150	0x3eb5d791	0.35516027
151	0xbe3472eb	-0.17621963
152	0x3d0462f9	0.03232095
153	0xbcdc9838	-0.026928052
154	0x3d9e02fc	0.07715413
155	0x3eb1901c	0.3468026
156	0xbdcf6576	-0.10126774
157	0x3e5c375a	0.2150549
158	0xbef8f19e	-0.4862184
159	0xbec63b43	-0.38717088
160	0x3edd22a7	0.431905
161	0xbdff9dd7	-0.124812774
162	0x3e44f305	0.1923333
163	0xbef8557a	-0.48502713
164	0xbd853dca	-0.06505926
165	0x3e77bab6	0.24192318
166	0x3e113a85	0.1418248
167	0x3e8cb2ca	0.27480155
168	0x3e7c0756	0.24612173
169	0xbeb49351	-0.35268643
170	0x3e770f29	0.24126877
171	0x3f033392	0.51250565
172	0xbf12c0a4	-0.57325196
173	0x3e951752	0.29119354
174	0x3e9287bd	0.28619185
175	0xbe9d8983	-0.30768976
176	0x3e5eb64e	0.21749231
177	0xbefbf494	-0.49210036
178	0xbe6c3045	-0.23065288
179	0xbf0c5693	-0.548196
180	0xbd8f608d	-0.070008375
181	0x3ea4b6e8	0.32170796
182	0x3ea77272	0.32704502
183	0x3e2dfd3a	0.1699113
184	0xbe4219ba	-0.18955126
185	0xbe61dd73	-0.22057132
186	0x3e885bfc	0.26632679
187	0xbed6372d	-0.4183897
188	0x3de2c87e	0.11073397
189	0xbea09ea3	-0.3137103
190	0xba088c74	-0.00052089174
191	0xbed967e4	-0.42462075
192	0x3eecdcb0	0.4626212
193	0xbd9ddb3b	-0.077078305
194	0xbe45912d	-0.19293661
195	0xbed1635e	-0.40896124
196	0xbd86012d	-0.06543193
197	0xbe9ab2f0	-0.30214643
198	0x3e6c7828	0.23092711
199	0x3e96a813	0.29425105
200	0x3e890a25	0.26765552
201	0x3bdbafd1	0.0067043086
202	0xbec49b9a	-0.38399965
203	0x3eba420f	0.36378524
204	0xbea58b4a	-0.32332832
205	0x3d9f0e7c	0.077664346
206	0x3bbe9cb7	0.0058170217
207	0xbe5fba0b	-0.21848314
208	0xbece990f	-0.4035115
209	0xbe766fd3	-0.24066095
210	0x3ef4f637	0.47844097
211	0xbd4e290c	-0.050332114
212	0xbe9318af	-0.2872977
213	0xbe451c5a	-0.19249097
214	0xbebef811	-0.37298635
215	0xbe5ec494	-0.21754676
216	0x3e9498ba	0.2902277
217	0xbe8f9574	-0.2804371
218	0xbeb44b90	-0.352139
219	0xbeae8a0b	-0.34089693
220	0x3d00bce9	0.03143016
221	0x3e80a42b	0.2512525
222	0x3d9e8ebf	0.077420704
223	0x3ce9d7ef	0.028545348
224	0xbf0ab91d	-0.5418871
225	0xbe08d8e3	-0.13363986
226	0x3eaea738	0.34111953
227	0x3e2d4b5a	0.16923276
228	0x3e7aa66b	0.24477546
229	0xbebdda49	-0.370806
230	0xbecc2107	-0.39868948
231	0x3ec35b7a	0.3815573
232	0x3e95276e	0.29131645
233	0x3dfd6ea1	0.123746164
234	0x3e658111	0.22412516
235	0x3ec7f9d6	0.39057797
236	0x3d50eefb	0.05100916
237	0xbe38f0e9	-0.1806065
238	0xbe8f2d5d	-0.27964297
239	0xbdbb6cfc	-0.091516465
240	0xbec727d0	-0.38897562
241	0xbf134978	-0.5753398
242	0x3ebb43b5	0.36575094
243	0x3da9c8d1	0.08290256
244	0x3d8d20eb	0.06891044
245	0x3eaaeb2b	0.33382544
246	0x3e3c1190	0.18366075
247	0x3df6b4f4	0.12046233
248	0xbe84a2d8	-0.2590549
249	0xbdec8172	-0.11548127
250	0x3ecb9c91	0.39767888
251	0x3e40879d	0.18801732
252	0xbec0805d	-0.37597933
253	0xbe51b240	-0.20478153
254	0x3e08f1e1	0.1337352
255	0x3e4b7866	0.19870147
