oct8_deep_sdf/jackiel4_2dDeepSDF/experiment_/ModelParameters/1980.pth (torch, 90450 bytes, 19 tensors)

fcn.0.bias f4 [64]
000000 36 b8 db bc b0 e2 bd be f3 8b 41 bd 5d df e6 bd
       -0.026821237 -0.3708701 -0.047252607 -0.11273072
000010 ff c9 24 3e b3 79 ba be 76 0e fe bd 2e 05 88 bd
       0.1609268 -0.36420974 -0.12405102 -0.06641613
000020 0e 99 ee bd 71 30 7f bb 23 83 aa 3e 23 82 a9 bd
       -0.116502866 -0.0038938785 0.33303174 -0.08276775
000030 6b 6d b5 bd 65 ff db bd 2a 63 9b 3e 41 a3 7a be
       -0.088587604 -0.10742072 0.30349094 -0.24476339
000040 59 56 f5 bd 69 9f 73 bd 0e a3 74 3e 57 cf a6 be
       -0.1197936 -0.059478197 0.23890325 -0.32580063
000050 dc b3 76 3e de af a1 3d 61 9e 86 3d 7a 1f 63 be
       0.24092048 0.07894872 0.06573177 -0.22179976
000060 7a 5f fc bd 2d be b7 bc de 9f b4 be f0 03 07 be
       -0.12322898 -0.02242955 -0.3527822 -0.13185096
000070 1c bc 90 be 46 81 40 be 78 76 0e be 1b 5b de bd
       -0.28268516 -0.18799314 -0.1391238 -0.10857221
000080 d5 d0 03 be 53 dd 88 3d 41 33 75 be 3a df 0e be
       -0.12872632 0.06682839 -0.23945333 -0.13952342
000090 0d 63 08 be 63 8c e6 3c b2 24 f6 bd 3f 0c 36 3e
       -0.13319035 0.028143113 -0.12018718 0.17778109
0000a0 b7 9c 16 be 05 31 4d be 3a ff 03 3e 9b 8c d6 3c
       -0.1470822 -0.2003823 0.1289033 0.026190093
0000b0 c6 ed 22 3d 1d 4f 1a be cc de 04 be 3b 88 9f 3e
       0.03977754 -0.15069242 -0.12975615 0.31158623
0000c0 c4 38 1d be ff 7a 5f be 99 9a 20 3e 27 2a f6 bd
       -0.15353686 -0.21824263 0.15683974 -0.12019759
0000d0 ed 2c df be e4 85 6e be 3b c0 92 bd b4 a0 3e be
       -0.43588963 -0.23293263 -0.07165571 -0.18615991
0000e0 68 6c 79 be 3b c1 52 3d 7a 82 14 3e 9b 3a 93 be
       -0.2435776 0.05145381 0.14502898 -0.2875565
0000f0 f4 f7 ba 3e bf 74 b2 be e1 11 aa be 06 d1 b5 3e
       0.36517298 -0.34854695 -0.33216766 0.35511035

fcn.0.weight_g f4 [64, 1]
000000 42 41 7e 3f e6 fe 04 3f 10 bc d1 3f 4b 9a 1c 3f
       0.99318326 0.51951444 1.6385517 0.6117293
000010 bc 44 a4 3f c7 77 bc 3e d0 89 7e 3f e6 4c 2e 3f
       1.2833476 0.36810133 0.99429035 0.6808609
000020 d1 96 9b 3f 2b 9e 00 40 8b 1b 39 3f 52 3a 2c 3f
       1.21554 2.0096538 0.7230765 0.6727649
000030 34 b0 1a 3f b7 92 2c 3f be 3a 2d 3f 79 69 62 3f
       0.60425115 0.6741137 0.6766776 0.8844219
000040 d4 4a d6 3e 3c 96 c7 3e 58 1d 69 3f 19 ef ee 3e
       0.41853964 0.38981807 0.910604 0.46666792
000050 d7 ea bb 3f 17 55 8a 3f e8 3e c8 3f 87 86 a4 3e
       1.4681042 1.0807217 1.5644197 0.32133886
000060 92 75 9f 3f a9 6b 9c 3f 6d ac 25 3f 16 6b 83 3f
       1.2457755 1.2220355 0.64716226 1.0267055
000070 73 00 f7 3e 43 12 af 3f 88 e4 2f 3f b8 61 ad 3f
       0.4824253 1.3677448 0.68708086 1.3545446
000080 c7 56 42 3f 22 24 da 3f b7 a6 90 3f e5 1f c7 3f
       0.7591366 1.7042277 1.1300877 1.5556608
000090 10 95 42 3f 15 ad bd 3f ee c8 22 3f d5 5f 62 3f
       0.760087 1.4818445 0.63587844 0.8842748
0000a0 21 52 6b 3f 80 3d da 3e 0e 88 d9 3f 2f 56 fc 3f
       0.91922194 0.42625046 1.6994646 1.9713801
0000b0 4c 15 97 3f 47 64 44 3f af 90 b8 3e 26 f8 0f 3f
       1.1803374 0.7671551 0.36047885 0.5623802
0000c0 2d 27 71 3f 6c 18 e2 3e 3d f6 da 3f 04 4c 8c 3f
       0.942004 0.44159257 1.7106396 1.0960698
0000d0 bf 7c 03 3f 3f af b6 3f 8c 44 3f 3f 3f 44 15 40
       0.5136222 1.4272231 0.7471397 2.3322904
0000e0 c3 ae 6d 3f cc 70 b9 3f d0 47 cc 3f 03 94 df 3e
       0.9284479 1.4487548 1.5959415 0.4366761
0000f0 26 bc 4b 3f 54 b7 c7 3e a9 45 ab 3e 01 d2 1b 3f
       0.79583967 0.39007056 0.33451584 0.60867316

fcn.0.weight_v f4 [64, 5]
000000 ae 5d ac 3e 38 e7 8f 3e 67 f4 9e 3e 60 49 66 bd
       0.33665222 0.28106093 0.3104584 -0.05622232
000010 9d e1 16 be 6f 3d 3e bd 79 b3 10 3d bd 46 65 be
       -0.14734502 -0.046445306 0.03532741 -0.22390266
000020 9e 33 14 3f b2 f4 2f 3e 03 c1 f4 be da bf 06 3b
       0.5789126 0.17183188 -0.47803506 0.002056113
000030 a4 c2 16 be c4 5f ad be ba a1 e4 3c 82 02 9e 3e
       -0.14722687 -0.33862126 0.027909148 0.30861288
000040 ef e8 9c 3e 0f 81 f3 be 1c 8d 6c 3d eb 84 07 be
       0.30646464 -0.475594 0.05775176 -0.13234298
000050 fb 22 2d be c2 dc bb be 17 eb 95 be 4c 62 87 be
       -0.16907875 -0.36691862 -0.29280922 -0.26442182
000060 75 f4 09 be 9f 0a 89 bc 42 8a 1f 3e 1a c5 95 be
       -0.13472159 -0.016728697 0.15580085 -0.2925194
000070 5f 0d 35 be 4f bc 3e 3d f5 78 a9 be a3 8d cf 3e
       -0.17680882 0.046566304 -0.33100095 0.40537748
000080 36 3e df be 3e 8c 04 3b 67 06 17 be 40 97 05 bf
       -0.4360215 0.0020225192 -0.14748536 -0.52183914
000090 a6 33 84 be c2 5e 9c be 2d f0 57 3b ee 03 07 be
       -0.25820655 -0.30541044 0.0032949552 -0.13185093
0000a0 71 7f 28 bd f2 f1 df 3e 83 93 bf 3e ed 72 99 be
       -0.041137163 0.43739277 0.3741723 -0.29970494
0000b0 60 48 00 3d 19 a7 12 bf 09 45 aa 3e 69 ad 4c 3e
       0.031319022 -0.5728622 0.33255795 0.19988026
0000c0 2b a6 6d be 8a 81 53 be 48 1d 99 bd 4d 99 08 3d
       -0.2320792 -0.20654884 -0.07476288 0.033349324
0000d0 91 9a d0 3b 44 d8 61 bf 7f 9f f7 bd 22 cc c8 be
       0.006366082 -0.8822062 -0.12090968 -0.3921824
0000e0 bb e4 01 3f 48 8a c3 3e 85 95 2b 3c 22 9b 38 be
       0.5073964 0.38191438 0.01047266 -0.18027928
0000f0 2d 2c b3 bc e5 49 9a 3e a7 17 8f 3e 06 b3 0f be
       -0.02187165 0.30134502 0.27947733 -0.14033136
000100 7b f1 cf 3c 94 23 83 3e cd ee 80 3e 9f 8e c6 be
       0.025383702 0.2561308 0.2518219 -0.38780686
000110 49 01 03 3d 8d 7b ea bd 54 ad 66 be 52 33 87 be
       0.031983647 -0.11449347 -0.22527057 -0.26406342
000120 82 3a 3a 3d cd 0e fc be ba 45 4b be c4 e2 b6 be
       0.045465954 -0.49230042 -0.19850817 -0.35719883
000130 6d f1 94 be 79 ae ac 3e 74 55 ca 3d 98 3b ae bd
       -0.29090443 0.33726862 0.0987958 -0.0850746
000140 5c b4 a0 3e 99 d7 9c 3e 79 24 dc be 60 5f dc bd
       0.31387603 0.30633238 -0.42996576 -0.10760379
000150 67 e8 17 3e b7 ac aa be 88 76 e8 3e 13 b2 ab 3e
       0.14834748 -0.33334896 0.45402932 0.33534297
000160 f2 4b 43 3d 12 a0 1f be fa a1 a8 3e ca 5e 7b 3e
       0.04767985 -0.15588406 0.32936078 0.24547878
000170 a5 6f 4b be 4b d4 8d be 1c 0a 75 be cc 5e a0 3d
       -0.19866808 -0.2770103 -0.23929638 0.07830581
000180 61 2f 42 3d a0 07 8d 3c a4 66 f4 39 ec 23 44 3f
       0.047408465 0.01721555 0.0004661578 0.7661731
000190 64 0c 8f 3e 57 cc 88 3e 2d 99 80 be 70 a4 92 be
       0.2793914 0.267184 -0.25116864 -0.2864108
0001a0 09 f7 0a be 0f 43 c7 bd d6 6e 7d 3e 73 d5 74 3e
       -0.13570799 -0.09729587 0.24749312 0.2390955
0001b0 c6 16 f7 be 42 87 db 3d 10 1d 9e 3e 00 76 9c 3e
       -0.48259562 0.10719158 0.30881548 0.30558777
0001c0 fa b1 a1 be 32 12 a1 be 31 72 8c bd a8 cc d9 bc
       -0.31581098 -0.31459194 -0.06857718 -0.026586846
0001d0 04 b8 ee 3c 01 64 ee bd 4e 7d 2c 3f b6 2a 04 3e
       0.02914048 -0.11640168 0.673787 0.12906918
0001e0 00 3b 43 bd 0a 90 e5 3e f2 75 c9 3e aa 86 9e be
       -0.04766369 0.44836456 0.39347798 -0.30962116
0001f0 12 da 1d 3d 84 52 c3 3e 9a 58 9f 3e 1d b9 b2 3e
       0.038538046 0.38148892 0.31122285 0.34906855
000200 c4 90 9d bd c8 d8 20 be 1f eb f4 3c 67 37 bb 3c
       -0.076936275 -0.15707695 0.02989727 0.022853566
000210 6b d8 17 3d cb d5 92 be 71 a6 66 3f 90 1e ad be
       0.037071627 -0.28678736 0.9009772 -0.3381238
000220 46 9f d6 3e 53 2d e8 be 18 a8 b5 3b 60 6a 1b be
       0.4191839 -0.4534708 0.00554372 -0.15177298
000230 90 e4 f9 3d d1 5c 50 bd 67 18 21 3e 5a 72 83 be
       0.12201798 -0.050869767 0.15731965 -0.2567318
000240 26 5e b5 be 91 0f 92 be 45 bb bf 3e b2 a7 c6 be
       -0.35423392 -0.285275 0.37447563 -0.38799816
000250 11 8b df bd 4b a4 26 be 4d 49 9e be 22 c5 bc 3e
       -0.10915197 -0.1627361 -0.309153 0.3686915
000260 cb 13 99 3e a1 62 51 bd f2 8f 00 bd 16 d0 e3 3e
       0.29897913 -0.05111945 -0.031387277 0.44494694
000270 3a 94 d6 be 6f c0 70 be 90 b7 f6 3b 08 6e 3b be
       -0.41909963 -0.23510908 0.0075292066 -0.18303692
000280 6a 50 9c be 03 89 c3 3e 55 29 d3 be b2 b8 1c 3d
       -0.305301 0.3819047 -0.4124247 0.038262077
000290 ad e4 f3 bd 09 26 07 bf 80 89 9d 3e 3c 1b 4b 3e
       -0.11908851 -0.5279241 0.30768967 0.19834608
0002a0 b9 a7 80 be 04 cd 43 be 2f f4 61 3e 8f 05 96 3e
       -0.25127962 -0.19121176 0.22065805 0.29301116
0002b0 1c 7f 02 bf 8f c7 24 bc 19 b8 76 be c9 e6 dd 3e
       -0.50975204 -0.010057344 -0.24093665 0.43340138
0002c0 c4 f6 a7 be 3c ac 8c be 60 92 0e be a5 db 4f be
       -0.32805455 -0.27475154 -0.13923025 -0.20298631
0002d0 60 5a f7 3e b6 d7 fa be b4 75 88 be ba 43 7d be
       0.48311138 -0.489927 -0.266523 -0.24732867
0002e0 d4 c4 e8 3d 38 03 a9 3e 94 e3 71 be 38 f0 d3 3e
       0.11365667 0.33010268 -0.2362197 0.4139421
0002f0 50 c4 6f be cf 1e 17 be 6f 86 89 be a8 d4 c8 3e
       -0.23414731 -0.14757846 -0.26860377 0.39224744
000300 f0 54 90 3e 80 47 8c 3d 28 ed 00 be e7 67 82 3e
       0.28189802 0.06849575 -0.12590468 0.25469896
000310 d5 3c 3a 3e ee 3a 2f be 05 28 1d be 51 38 42 be
       0.18187268 -0.17112324 -0.15347297 -0.18966796
000320 54 a8 de 3e e9 f6 cb be 1c 76 78 be b6 68 87 3d
       0.434878 -0.39836815 -0.24263805 0.06611769
000330 61 d7 0d be ab 92 9b bd 07 ab cd bd 6f 67 04 be
       -0.13851692 -0.07596334 -0.100423865 -0.12930082
000340 f6 79 e2 3e 10 72 f0 bd 01 43 26 be c4 9d a7 be
       0.44233674 -0.11740506 -0.16236497 -0.32737553
000350 40 ed 8c be f1 e5 83 be bc 34 c3 bd c3 3a 5c 3e
       -0.27524757 -0.2576137 -0.09531543 0.21506791
000360 c6 45 90 3e 36 3a a4 be 03 86 bf be ab a6 a0 3c
       0.28178233 -0.3207566 -0.3740693 0.019610723
000370 3e 83 9b be 60 7f 36 3e 16 6c ec 3d 63 28 05 be
       -0.30373567 0.17822027 0.11544053 -0.13003688
000380 8d 66 e7 bd 7c fd 65 3e 28 d7 eb be 77 1b 90 3e
       -0.11298857 0.22459978 -0.4606259 0.28145954
000390 5e bf 42 3d 28 86 dd bd 38 e8 87 3e 5b 36 f4 be
       0.047545783 -0.10816604 0.26544356 -0.4769772
0003a0 a6 43 a3 3e a2 af 63 3e fa 3a b2 bd 00 dc ee 3d
       0.3188755 0.22234967 -0.08702655 0.116630554
0003b0 00 68 a6 3d dc c1 32 bd 12 e8 db be 0b 19 85 be
       0.08125305 -0.04364191 -0.42950493 -0.2599567
0003c0 4b d5 73 3e aa 63 01 bf 21 e9 9b 3e cd f1 94 3c
       0.23811834 -0.505427 0.304513 0.018181706
0003d0 03 ef fd bd 4e 3a 0d 3e 9b 11 7e bc d9 f3 2f be
       -0.123991035 0.13791773 -0.015507127 -0.17182864
0003e0 c6 6c 65 be 70 69 a8 be e7 ae ee bd f1 99 8a be
       -0.22404775 -0.32892942 -0.11654454 -0.27070573
0003f0 a2 f4 5b be dc 1f 28 be 99 c4 ce bd c8 7e c0 3e
       -0.21480039 -0.16418403 -0.10096092 0.37596726

fcn.1.bias f4 [64]
000000 1e a5 44 bc 10 25 e1 bd 98 ca 5c bd 45 0f 4b ba
       -0.012002258 -0.10993397 -0.053904146 -0.0007746111
000010 9e 6d cc bc be 91 78 bb 3c 3d e1 bd 0c ac 72 bc
       -0.024954613 -0.0037928666 -0.10998008 -0.014811527
000020 d9 0a 75 39 a2 5a 28 3c c3 98 1b ba 38 01 f9 bc
       0.00023369062 0.010275515 -0.0005935544 -0.030396089
000030 45 b5 be bc 2a 81 11 be 2a e2 42 bc 83 4b e0 bc
       -0.023279795 -0.14209428 -0.011894742 -0.027379757
000040 8a 3a e6 bd 3c e1 18 bb 0c 18 19 bc 75 b6 fc b9
       -0.11241634 -0.002332761 -0.009344112 -0.00048201127
000050 b5 43 89 bc 81 29 e4 bb 52 14 14 bc d4 46 0c bd
       -0.016755918 -0.0069629555 -0.009038048 -0.034247234
000060 0d 0a 5b bd 14 8f a4 bb 0a c5 bc bb 03 47 72 b9
       -0.053476382 -0.005021939 -0.0057607936 -0.00023105372
000070 94 ac 1b bb 3d 6b 10 bc e7 08 78 bd 8e c6 79 bb
       -0.0023753988 -0.00881463 -0.060555365 -0.0038112733
000080 48 f8 3d bd 07 1d b0 b9 31 50 c1 ba 86 3a 1c bd
       -0.046379358 -0.00033590963 -0.001474863 -0.03814175
000090 22 4d 16 bd 56 c3 b5 38 5c 40 9b bc aa f3 85 bb
       -0.036694653 8.667137e-05 -0.018951587 -0.004087885
0000a0 05 3f f2 bd 5b 27 d9 bd 3b ed 70 bd 36 37 7d b8
       -0.11828426 -0.106032096 -0.05881999 -6.037132e-05
0000b0 4a c1 34 be 95 5f 37 bd a3 7b 04 be 68 31 92 ba
       -0.17651859 -0.04476889 -0.12937789 -0.001115364
0000c0 f2 9a 08 bc a8 cd 27 bb 97 f3 ff bb 11 36 d4 bd
       -0.008337723 -0.0025604758 -0.0078110206 -0.10361875
0000d0 ef 73 25 bd fd fa 0c ba 6f 38 5f b9 49 5e 0f ba
       -0.040393766 -0.00053779763 -0.0002128796 -0.00054690667
0000e0 3c 58 15 bd fc f4 20 bc bd 50 a5 bb f9 64 34 bd
       -0.0364611 -0.009824034 -0.005045025 -0.044041608
0000f0 d5 d5 d0 ba e9 6f 9a bb 78 f3 0d bd c2 21 b1 b9
       -0.0015932868 -0.0047130478 -0.034656018 -0.00033785222

fcn.1.weight_g f4 [64, 1]
000000 d8 23 d7 3f 1b c2 e8 3e 75 93 97 3f ca d3 3e 40
       1.6807814 0.4546059 1.1841875 2.9816766
000010 a0 5a f0 3f 88 c9 50 40 1d a6 92 3f 99 6b db 3f
       1.8777657 3.2623005 1.1456944 1.7142211
000020 c9 e1 18 40 2b af 61 40 1c 29 5f 40 69 73 ee 3f
       2.3887808 3.5263164 3.486884 1.862897
000030 24 d7 bc 3f 61 df ce 3f 0e 29 04 40 e7 94 b8 3f
       1.4753156 1.616192 2.0650058 1.4420441
000040 57 3c e4 3e 27 2f d5 3f cb 55 f6 3f 4e 14 88 40
       0.44577286 1.6655015 1.9244932 4.2524786
000050 d6 07 01 40 20 da 26 40 de 57 cd 3f 42 1b bb 3f
       2.0161033 2.6070633 1.604244 1.4617693
000060 99 a4 b9 3f b7 f3 c9 3f 18 af 2e 40 71 3d 53 40
       1.4503356 1.5777501 2.7294369 3.300625
000070 f6 fe 34 40 a7 29 cb 3f bc 72 7a 3f 2b f4 2b 40
       2.8280616 1.5872086 0.9783132 2.6867778
000080 e9 68 d6 3f e9 9e 39 40 24 98 1a 40 dc 2d c9 3f
       1.6750766 2.900324 2.415536 1.571712
000090 a9 51 b6 3f 2b b9 e8 3f ca 82 f5 3f c1 f9 dc 3f
       1.4243671 1.8181509 1.9180539 1.7263719
0000a0 41 f4 ed 3e d7 0e fa 3e 96 22 b6 3f ef 2a 83 40
       0.46475413 0.48839447 1.4229305 4.098991
0000b0 1a 09 9e 3f 1d 60 fb 3f b8 31 bd 3f 74 6d 42 40
       1.2346528 1.9638706 1.4780798 3.0379305
0000c0 b0 98 fb 3f d9 67 0f 40 35 9a de 3f 4c 92 c8 3e
       1.9655972 2.2407134 1.739081 0.39174116
0000d0 89 78 b2 3f 0e d0 5e 40 bd 08 17 40 f6 22 64 40
       1.3943034 3.4814487 2.3599083 3.5646338
0000e0 49 6d 06 40 18 16 08 40 e6 9d 33 40 88 a8 ab 3f
       2.1004202 2.1263485 2.8065124 1.3410807
0000f0 50 f0 0e 40 c8 d9 f6 3f 6d af d1 3f 68 dc 35 40
       2.2334175 1.9285212 1.6381661 2.8415775

fcn.1.weight_v f4 [64, 64]
000000 6f 7a 3e bd c3 65 39 bc b6 61 67 be 2c 4d 0d be
       -0.04650348 -0.011315766 -0.22595868 -0.1379897
000010 66 54 7a 3c b4 29 18 00 b6 92 57 bd 34 17 45 bd
       0.015278911 2.219012e-39 -0.05263015 -0.04811783
000020 7f 22 97 bc 16 28 fb bc c1 34 f9 bd 30 b6 44 bd
       -0.018449066 -0.030658763 -0.12168265 -0.04802531
000030 78 c0 97 3e 56 17 e9 3e 88 6a 1a be 4f c6 5c 3d
       0.2963903 0.45525616 -0.15079701 0.05390006
000040 76 7f a6 3e 22 e4 19 bd 6f 68 90 3d 1e 16 3c bd
       0.3251912 -0.03757108 0.07051169 -0.04591953
000050 2f 52 33 3d ea d6 08 bd c9 76 10 bd 57 37 4d bb
       0.04377955 -0.033408083 -0.035269532 -0.0031313503
000060 f4 51 2b bc 6d 6b ba bc 40 7a 46 bd 8a d9 45 bd
       -0.010456551 -0.022756303 -0.04845643 -0.048303165
000070 59 03 db 00 55 2c 8e be 7d 38 88 3e c6 ad 34 3b
       2.0113175e-38 -0.27768198 0.26605597 0.0027569397
000080 b9 68 0a bd 36 17 7d 3c c2 76 38 be f9 f0 b8 bd
       -0.033791278 0.015447428 -0.18014053 -0.09030337
000090 35 8f 56 bc d1 30 8a bd 5b 9b e9 3e 6c 49 a0 bc
       -0.013095667 -0.06747592 0.4562634 -0.01956626
0000a0 95 ae 2b bb 98 b2 9a bb 86 e7 11 be e6 4d 2a bc
       -0.0026196588 -0.004720997 -0.14248475 -0.010394549
0000b0 23 86 47 3d d6 7d ab bd 7f f3 0a 3f 0c 6e e0 3a
       0.048711907 -0.08373611 0.54277796 0.001712264
0000c0 c0 45 c3 3d 70 ab 8f b6 a7 0e f2 3d b2 0c 32 3b
       0.09534788 -4.28169e-06 0.11819201 0.0027168212
0000d0 a9 05 f1 bb 7a 88 85 be da 43 f8 3e 43 b9 b8 bd
       -0.007355411 -0.26080686 0.48489267 -0.09019711
0000e0 f7 d7 f8 3a a2 de 49 3e 24 7d 16 bd d4 49 46 3e
       0.0018985261 0.19713834 -0.036740437 0.193641
0000f0 66 ea 3d 3d b5 2b 92 35 9a 90 4b 00 32 de 6d be
       0.046366118 1.0890568e-06 6.939535e-39 -0.23229292
000100 a1 6e 5e 3d 1f c9 3b 3d 80 50 d0 3c b6 86 28 3d
       0.054304723 0.0458461 0.02542901 0.041144095
000110 43 a8 bb bd 1c 54 dc 3d bc b9 0d bd 7c d3 ce bd
       -0.09162953 0.1075823 -0.03460096 -0.10098931
000120 7c 1d 30 3d a1 26 bc bd 95 84 dd bc 3e 1c d1 bd
       0.04299687 -0.091870554 -0.02704076 -0.10210465
000130 dc 13 76 3c 65 28 9e 3c 31 3b 8c 3d 75 f9 83 bd
       0.015019383 0.019306371 0.06847227 -0.064440645
000140 94 4c d7 bd 5f e4 a7 bc 76 e8 21 bd d1 58 0d bd
       -0.10512653 -0.020494638 -0.039528333 -0.03450853
000150 4e 3b 92 bd ef 40 be 3d cd 3c 7e bd 93 06 11 bd
       -0.07140218 0.09289729 -0.062069703 -0.03540666
000160 1c 82 b7 bc 72 d4 49 bd 96 3b 4b bd 6a cd 30 bd
       -0.022400908 -0.04927487 -0.049617372 -0.043164648
000170 95 33 bd bd cc 73 23 3d fc b2 a4 bc a7 38 e7 bd
       -0.09238354 0.039905354 -0.020104878 -0.112901025
000180 8e 24 83 3d 6f 6a 9e bd fa a9 8d bd 31 e0 89 3d
       0.06403457 -0.07735144 -0.06917186 0.06732214
000190 13 af 82 bd 78 ba a8 bc 26 26 aa bd 85 9e 84 bd
       -0.06381049 -0.020596728 -0.083080575 -0.06475548
0001a0 13 a4 28 bb 98 3e 4f 3c 6d 13 f0 bd 9a e6 ad 3a
       -0.0025732561 0.012649201 -0.11722455 0.0013267577
0001b0 6d e8 9a bd 12 08 cf bd b1 01 3e 3c 58 04 ef bc
       -0.07563863 -0.10108961 0.011597083 -0.029176876
0001c0 b6 4e 94 3d 92 d0 c0 3d 3a a2 24 3d c6 67 83 3c
       0.072415754 0.09414782 0.040193774 0.016040694
0001d0 91 86 e4 bd bf 31 be bd 73 d2 89 3d 9c a3 3d bd
       -0.11158479 -0.09286832 0.06729593 -0.04629861
0001e0 7c f1 d4 bd 75 6d 5e 3d 25 c1 3d bd d1 6d 95 bd
       -0.10397622 0.054303605 -0.046326775 -0.072963364
0001f0 5f 1e b5 bc fb 5b c4 bd db fa a1 bd 7e 02 54 3b
       -0.022109209 -0.095878564 -0.07909175 0.0032350118
000200 dd a7 71 bd 5b 78 95 bc 35 6b 90 3d 9b ee ae ba
       -0.058997978 -0.018245867 0.07051698 -0.0013346256
000210 dc b2 9c bb 8c b6 08 39 c1 10 0a bd dc 73 36 3d
       -0.004782064 0.00013037975 -0.033707384 0.044544086
000220 2b 67 0a bb 83 78 4b 3c 06 0a f2 3d 4b b6 40 3c
       -0.0021118622 0.012418869 0.11818318 0.011762212
000230 07 76 37 bc 3c 54 68 bb 35 ef f2 bc 57 9e 22 bd
       -0.0111975735 -0.0035450598 -0.029655078 -0.039701786
000240 08 bc 05 be 45 bd 68 3c 43 b4 9a 3c 21 e1 10 bd
       -0.1306001 0.014205282 0.018884784 -0.03537095
000250 88 d8 cf 3a 13 9f ab 3d e4 15 7c bc 4b 5d 2f bd
       0.0015857378 0.083799504 -0.0153860785 -0.04281358
000260 d4 1b 6e bc 47 f5 6b 3e df ad 67 bd 74 e9 b2 3e
       -0.014533002 0.23042785 -0.0565623 0.34943736
000270 2a 1f f4 b4 5f 01 d2 bd 55 fb 84 3c 35 18 89 3e
       -4.5471216e-07 -0.10254168 0.016233126 0.2677628
000280 73 c6 22 bd 68 dd a8 3c fc 8b ea bd c9 9e 82 bc
       -0.039740037 0.020613387 -0.11452481 -0.015944855
000290 94 f4 fb bc 3e 2c 35 3a 67 90 ae 3c a8 0a 73 3c
       -0.030756272 0.00069111947 0.02130909 0.014834084
0002a0 ec 17 6c bd dc 8b 49 3d e5 c4 6f bc 75 64 3a be
       -0.05764 0.049205646 -0.014634346 -0.18202384
0002b0 7b de 0c 3d 4a 1c 9e bc 27 5d 47 bd f6 ba cd bc
       0.03439186 -0.019300599 -0.04867282 -0.025113564
0002c0 97 9c 81 bc ab 06 8c a4 60 21 d1 bb 88 ae 21 bd
       -0.015821738 -6.072662e-17 -0.0063821524 -0.039473087
0002d0 41 1b ce 3e 45 04 0b be 67 c4 18 3d e3 bd 35 bd
       0.40255168 -0.13575847 0.03729668 -0.044370543
0002e0 ff be 94 3e ad 0b ce ba 6c 0d f4 bb cc e1 34 bb
       0.29051968 -0.0015720032 -0.007447889 -0.0027600406
0002f0 af 49 22 3e a7 96 18 80 70 27 1d 80 17 9c 03 3d
       0.1584842 -2.258096e-39 -2.677377e-39 0.03213128
000300 4c 89 ec bd 37 7c 9a bc 92 42 d6 bc 31 80 60 bc
       -0.11549625 -0.018858058 -0.02615479 -0.013702438
000310 bd 19 95 bd 22 5c 41 01 6d eb d9 bd aa b5 0e bb
       -0.072803 3.5514604e-38 -0.10640607 -0.002177576
000320 ca 67 d4 be b8 02 a6 be 08 ac 14 bd d9 d4 bf bc
       -0.41485435 -0.3242395 -0.036296874 -0.023416923
000330 ff 1b ac be 00 4f ad bc 41 d7 4b 3c 76 17 33 be
       -0.3361511 -0.021155834 0.012441457 -0.17489418
000340 75 32 bc bd ab 4c 38 3e 12 f9 25 bd f9 0f 17 bc
       -0.091893114 0.17997997 -0.040520735 -0.009220117
000350 95 e5 42 bd 46 bf 18 3e 0a b3 1d bd ec db 87 bc
       -0.047582228 0.14916715 -0.038500823 -0.01658436
000360 c1 62 be be 4d 0d 27 be 46 8e 42 bb 77 44 79 3e
       -0.37184718 -0.16313668 -0.0029686852 0.24342524
000370 7f e9 4b 00 a6 ce e1 be 23 c4 85 3d a3 94 99 bd
       6.971425e-39 -0.44102973 0.06531551 -0.07499053
000380 31 c6 3e bd f4 47 80 be 7e 47 79 3d a0 89 03 bf
       -0.04657573 -0.25054896 0.060859196 -0.51381874
000390 4c 1c de bd a8 f9 92 3c 15 9b e0 bc a8 e4 a8 bc
       -0.10845241 0.017941311 -0.027417699 -0.020616844
0003a0 c6 30 b9 3e a3 38 d8 ba 18 93 85 be 2f 14 af ba
       0.36170024 -0.0016496371 -0.26088786 -0.0013357456
0003b0 ff 9c 99 be f1 e4 02 bc fc 5d 9e bc f0 f5 a6 bd
       -0.3000259 -0.007989154 -0.019331925 -0.081523776
0003c0 83 b7 26 bc 26 97 d6 80 77 47 4e bd a1 41 ab bd
       -0.010175589 -1.9707018e-38 -0.050361123 -0.08362127
0003d0 3a da 1d 3d 6f 00 04 bf 49 63 4f bb 34 da c7 be
       0.038538195 -0.5156316 -0.0031644872 -0.39033663
0003e0 ae 38 c3 3e b5 b6 98 ba bc f5 87 bd 0c 47 10 3d
       0.3812918 -0.0011651131 -0.06638667 0.035224006
0003f0 63 f6 87 3e 88 1b 0f 00 7a 2a 5a 81 f4 3d af 3c
       0.26555166 1.387409e-39 -4.0070752e-38 0.021391846

fcn.2.bias f4 [59]
000000 ce 23 29 bd 64 eb bd ba bf 9f bc bd e7 3a d5 bd
       -0.04129391 -0.0014489708 -0.09210157 -0.10411625
000010 1c 09 33 bb 51 b3 26 3c ac 74 63 3c a7 4e da bd
       -0.0027318662 0.010174588 0.013882797 -0.10659533
000020 f3 56 47 38 25 73 cb 3b 1e 0b 1c 3b c9 9e ce bb
       4.7526275e-05 0.0062087947 0.0023810337 -0.0063055498
000030 52 17 6d b9 8c 8b bc 3c 7e b2 0d bd a0 f3 86 3b
       -0.00022610769 0.02301576 -0.03459405 0.004118398
000040 02 8b 69 3b ff ce 9c b9 23 38 80 ba 86 b2 49 bb
       0.0035635834 -0.00029908863 -0.0009782355 -0.0030776574
000050 35 a3 5e bc 19 11 47 3b 2f e7 e4 bc 11 f1 ae bd
       -0.013588716 0.0030375181 -0.027942268 -0.085420735
000060 ab 37 f5 bd dc 89 d0 bd 13 cb 0b be 91 12 da ba
       -0.119735084 -0.101825446 -0.13651685 -0.0016637613
000070 f6 a6 0a bd 8a 9d 39 3c b8 4a ba bd 3c 11 e9 3c
       -0.033850633 0.011329064 -0.09096283 0.0284506
000080 eb 7e a3 ba 70 bf ac bd 48 86 24 bd ba 38 cf 3c
       -0.0012473738 -0.08434951 -0.040167123 0.025295604
000090 0e 55 02 3b 7a a2 62 bc 17 dd fb bc 70 bb 1c 3d
       0.0019887122 -0.013832683 -0.030745072 0.03826469
0000a0 1f eb 27 3a 07 c7 09 bd 86 64 0c 3d fb 31 4f bc
       0.000640558 -0.033637073 0.034275554 -0.012646194
0000b0 6b 8c 03 bb 59 4c 30 bb 2a 65 4d 3b 98 c5 00 3d
       -0.002007271 -0.0026900975 0.0031340816 0.03143844
0000c0 65 2a 06 be 5f 2a e8 bd 19 a6 26 3d 37 00 d7 3b
       -0.1310211 -0.11336207 0.040685747 0.006561305
0000d0 14 d6 06 3d 07 f1 64 3d d1 01 e3 3c 6a 4e ae b9
       0.032919005 0.055893924 0.027710827 -0.0003324629
0000e0 7a d3 01 3d cc 86 97 bd 57 82 b4 bd
       0.03169582 -0.07398757 -0.08813923

fcn.2.weight_g f4 [59, 1]
000000 8d f6 aa 3f 1c d7 0f 40 5e 9e d1 3e 8a a3 d6 3e
       1.3356491 2.2475042 0.40941137 0.41921645
000010 e0 a3 46 40 db 90 aa 40 57 da 1c 40 e1 d1 f4 3e
       3.1037521 5.3301826 2.4508264 0.47816375
000020 fd 61 27 40 de 25 53 40 ac 18 75 40 40 3f 04 40
       2.6153557 3.2991862 3.8296309 2.0663605
000030 d1 84 26 40 73 f5 be 40 8e 19 ea 3e 60 cd f3 3f
       2.6018565 5.967462 0.45722622 1.904705
000040 e4 e7 2d 40 73 e6 26 40 71 ee fd 3f 9e 1b 09 40
       2.7172785 2.6078155 1.9838392 2.1423106
000050 66 1d 49 40 ae f6 02 40 2c 8c bf 3f 92 db de 3e
       3.1424193 2.0463061 1.4964652 0.43526894
000060 24 76 e7 3e 52 d9 d7 3e 4d 34 ee 3e 84 7e 7c 40
       0.45207322 0.4215799 0.46524277 3.945222
000070 b9 06 a6 3f fa ae f7 40 a9 f5 e8 3e 35 43 95 40
       1.2970802 7.7401094 0.45499924 4.664454
000080 e8 2c e9 3f ba 79 b1 3f b1 26 db 3e 6a d2 93 40
       1.8216829 1.3865273 0.42802957 4.6194353
000090 bf 85 1f 40 69 9a d5 3f d8 61 3b 3f 43 a8 53 40
       2.4925382 1.6687747 0.7319617 3.3071449
0000a0 1c 86 10 40 23 d3 bd 3f 80 f7 50 40 32 1c 00 40
       2.2581854 1.4830059 3.2651062 2.001721
0000b0 1e 1b 00 40 6d 38 9c 3f 24 8f b4 40 bd 3e 99 40
       2.001655 1.220472 5.642473 4.7889085
0000c0 c7 0b e0 3e 24 d1 cc 3e ea 13 bd 40 da 98 23 40
       0.43758985 0.40003312 5.908681 2.5562043
0000d0 8e 98 c8 40 41 07 40 40 60 71 66 40 d3 4d 2b 40
       6.2686224 3.0004427 3.6006699 2.676625
0000e0 f3 de c6 40 47 5f 73 3f d0 64 c3 3e
       6.2147155 0.95067257 0.3816285

fcn.2.weight_v f4 [59, 64]
000000 82 f0 28 bd 7d ec 1a a9 b1 ce 1b 3e 07 06 28 bc
       -0.04124499 -3.439999e-14 0.15215565 -0.010255343
000010 1b f1 29 bd ee 8b 22 bd d5 63 b1 3d 68 ff 5c 3e
       -0.0414897 -0.03968423 0.086616196 0.21581805
000020 22 37 a7 bb 0d d6 87 3d 3b a7 bf bc e6 fa 7b 3e
       -0.005103008 0.06632624 -0.023395171 0.24607429
000030 24 21 8b bd be 62 02 3f ee 53 ee 3b ce 50 b6 3d
       -0.067934304 0.5093192 0.007273189 0.08902131
000040 21 f0 39 93 61 61 31 bb 19 87 8f 3d fb 49 a2 3d
       -2.3468675e-27 -0.00270661 0.0700819 0.07924267
000050 ad a9 09 bd 67 7a 66 3b 1d 38 bc 3e fd 6b f1 bc
       -0.03360908 0.0035168172 0.3676156 -0.029470438
000060 bb e5 ed bb 27 27 85 3c 16 86 d1 3e 9b 81 f6 bd
       -0.007260052 0.01625402 0.40922612 -0.12036439
000070 0f c3 49 3d 59 c4 46 bd f5 c0 a5 3d 0c 56 c0 bb
       0.049258288 -0.048527095 0.08093444 -0.0058696326
000080 02 2a 43 3c 44 cb c9 3c 2a 25 e1 ba 25 e9 e3 3b
       0.011911871 0.024633057 -0.0017177213 0.006955283
000090 40 19 96 3c 5d 40 c2 3b 13 18 13 3b 49 ff 5e bd
       0.018322587 0.005928083 0.002244477 -0.054442678
0000a0 3e 92 65 1e f9 2a da 38 20 a3 08 bd 86 be 24 be
       1.2153401e-20 0.00010403054 -0.033358693 -0.16088304
0000b0 32 08 23 3e e3 47 ed 3b 1d ea 0b 3f ce 24 06 bd
       0.15921095 0.0072412356 0.54654104 -0.032749943
0000c0 8e 99 17 bd ba 36 ca 3c ea 96 74 3d 01 52 a7 31
       -0.037011676 0.024684299 0.059714235 4.8696625e-09
0000d0 94 ac 0f 3d ef b6 fa 3d 4c db be 3c b9 79 a5 3d
       0.035076693 0.12241923 0.023297928 0.080798574
0000e0 2a b2 de 3a 47 42 cf ba 35 ca 0a bc 5a cb 8b 3d
       0.0016990353 -0.0015812599 -0.0084710615 0.068258956
0000f0 c8 73 6a 3c 97 81 e7 bd a2 54 9d 3c 76 88 9e bb
       0.014309831 -0.11304014 0.019205395 -0.0048380448
000100 40 19 2e bc 26 5d ad 81 03 c0 ac bb 79 61 b0 3c
       -0.010626137 -6.3683825e-38 -0.005271913 0.021530854
000110 44 a6 8d 3f 4e a4 4c 3f af 72 84 3f d1 6a 99 3a
       1.1066365 0.7993821 1.0347499 0.0011704807
000120 92 43 97 ba 7f db 19 3f 35 f7 23 bb ab 52 ae 3d
       -0.0011540523 0.6010055 -0.0025019173 0.085118614
000130 69 85 48 3f cd 99 80 be a9 ae ee bb c4 d8 4c 3f
       0.7832857 -0.2511734 -0.0072840047 0.8001826
000140 af fd 56 02 a9 b7 ca 3b 5d 44 63 3d c6 75 45 ba
       1.5795041e-37 0.006186445 0.05548512 -0.0007532503
000150 2d b7 ab 3d d5 44 a3 bb 30 c3 ba 3c 28 6d 28 3d
       0.083845474 -0.0049825707 0.02279815 0.041119725
000160 12 29 29 3e 92 1a 66 3c 8f 4d 09 3c a6 e0 9e 3e
       0.16519573 0.014044421 0.008380308 0.31030768
000170 86 f1 d3 3a 34 87 db 3c df 1a 67 3f 60 da ec 3a
       0.0016170002 0.026797868 0.9027538 0.0018070452
000180 00 44 da 3e a9 41 bb ba e9 d4 a0 3c d8 91 df 3e
       0.42630005 -0.0014286536 0.019632773 0.43665957
000190 da ca be 3e a4 2d e6 bb 63 9d b9 3c cf e9 06 bb
       0.37264138 -0.0070244838 0.022658056 -0.0020586138
0001a0 ba a8 99 02 7c f1 8a 3a 8b 37 9a 3e 93 34 a6 bd
       2.2578174e-37 0.0010600532 0.301205 -0.081154965
0001b0 5a e2 b4 3f 70 8e 82 3e 00 f7 8f bd 27 f9 94 3d
       1.4131577 0.25499296 -0.070295334 0.072740845
0001c0 11 98 13 3d cb 25 25 bc fa 3f 17 3b 6e cd d8 38
       0.036033694 -0.010079811 0.0023078904 0.00010337947
0001d0 9f 21 ef 3e 3a 51 24 bb d8 9e 41 3b 85 2c 24 3b
       0.46705338 -0.002507283 0.002954414 0.002505095
0001e0 2b d2 2f 3d ad 81 ca bc b0 06 65 ba e8 6a 06 3f
       0.04292504 -0.024720037 -0.0008736653 0.52506876
0001f0 45 c6 14 39 81 e7 06 bd 70 3a 6b 3e 3d fd b2 ba
       0.00014188241 -0.032935623 0.22971511 -0.0013655793
000200 70 4d 0b be 4f ba 11 3e a5 74 90 bc 9d 2b cf bc
       -0.13603759 0.14231227 -0.017633745 -0.025289351
000210 e9 55 d7 bd 70 40 9b 3d e3 24 ed bd 00 3f c7 bd
       -0.10514433 0.0758065 -0.11579301 -0.09728813
000220 8b 87 16 be de b6 29 3a ea 07 cb bc cc 0e f5 bd
       -0.14700143 0.0006474088 -0.024784047 -0.11965713
000230 f5 df c6 bd da 6c 92 bd b7 ea 37 3d e7 1d ea 3d
       -0.09710685 -0.07149668 0.044901576 0.11431485
000240 22 63 52 3d 32 34 01 3c 7d 97 f1 3d 91 47 8f bd
       0.05136407 0.0078859795 0.11796472 -0.06996072
000250 8f 1e a8 bd 71 22 78 bc 56 b4 9f bb 3a ec fd bd
       -0.082089536 -0.01514493 -0.0048737926 -0.12398572
000260 76 f1 eb bd 83 3f 51 3d 25 5e 22 bc 3c 5b 3b bd
       -0.115206644 0.05108596 -0.009910141 -0.045741305
000270 6c d8 2a bd e8 ea ed bd 99 60 b9 bd e7 82 f6 bd
       -0.041710302 -0.116170704 -0.09051628 -0.120366864
000280 cb a8 a2 bd 14 c5 2f 3d 4f 4f 87 bd 6c 28 02 be
       -0.07942351 0.042912558 -0.06606924 -0.12710732
000290 89 89 aa bb 47 9c e4 bd e1 fe a2 3d 0d 91 9e 3d
       -0.0052043837 -0.1116262 0.079587705 0.0774251
0002a0 66 aa e6 bd a4 03 38 3d 83 67 01 be e2 81 7f bc
       -0.1126297 0.044925347 -0.12637143 -0.015594931
0002b0 dc 14 1d bd db 26 da bd 7a 43 a9 bd 87 31 a2 bd
       -0.03834997 -0.10651942 -0.08264823 -0.07919603
0002c0 c4 d1 9c 3d 2b c1 63 bd be 81 4d 3d e1 55 95 3d
       0.07657197 -0.05560414 0.05017256 0.07291771
0002d0 bd 8d 18 bd f9 95 9c bd 59 65 15 3d c4 1c e3 bd
       -0.037244547 -0.076457925 0.036473606 -0.11089471
0002e0 8e b1 54 bd f8 8b 73 bd 2c dc 44 3d d3 2b 41 3d
       -0.05192714 -0.059459656 0.048061535 0.047160935
0002f0 7f f8 aa bd 77 10 68 3d d2 00 ed bd 89 eb 67 bc
       -0.08348178 0.056656327 -0.11572422 -0.014155277
000300 d5 8c b9 3c 0d 9f e9 3d 64 3d ca 3c 13 4c d3 bd
       0.022650162 0.1140729 0.024687476 -0.103172444
000310 9b f8 17 3d 0e 69 40 bc e0 f2 10 be c9 3a 82 bd
       0.037102323 -0.011743797 -0.1415515 -0.06358869
000320 ed f8 27 3d 58 8f 0a be ac 91 5c 3d 4b 4a 9c bd
       0.04100888 -0.13531244 0.05384986 -0.07631358
000330 33 d3 bd 3a b2 1c 03 bd a7 6e 69 bd 20 8b c1 3d
       0.0014482498 -0.032009788 -0.056990292 0.09450364
000340 f1 50 b8 3d 7a 13 7b bd ad 49 57 3d 20 3d 97 bd
       0.08999813 -0.06129787 0.052560497 -0.073847055
000350 78 47 1c bd e5 37 c6 3c e0 bd 15 3d a9 e9 e3 3d
       -0.038154095 0.024196574 0.036558032 0.111285515
000360 88 64 de 3d b9 95 75 3d 56 1d b4 3d dc 97 d0 3d
       0.108590186 0.05995724 0.08794658 0.10185215
000370 d9 e8 a8 3c 59 63 74 bd f6 12 35 bd 51 a7 af bd
       0.020618843 -0.059665058 -0.044207536 -0.08576835
000380 63 09 c9 3d c6 e6 24 bc 19 74 e4 bd ce eb 8c bd
       0.098162435 -0.010064786 -0.11154956 -0.06880914
000390 aa 1b fc 3c e4 90 39 bd 7d 4c 8a 3d 8f a3 8c 3d
       0.03077491 -0.045304194 0.0675287 0.06867134
0003a0 1f 4c 04 3e 73 ab 0b be bc 4c 47 bd 9b 6c 10 be
       0.12919663 -0.13639621 -0.048657164 -0.1410393
0003b0 09 5b 7a 3d 43 bc 00 be b9 c0 c3 bd 98 d8 29 3d
       0.061121974 -0.12571816 -0.09558243 0.041466326
0003c0 f9 09 a9 3c 1c a2 bb bd 2d 78 60 bd 62 2c e8 bd
       0.020634638 -0.09161779 -0.05480211 -0.1133659
0003d0 08 58 f4 bd 0a 2a 86 bc de 36 71 3d a8 77 90 bd
       -0.11930853 -0.016377468 0.058890216 -0.070540726
0003e0 9b cc fe 3c e7 a3 3e bd 71 83 0e be 61 17 74 3d
       0.031103423 -0.04654303 -0.13917328 0.05959261
0003f0 c6 9e 82 bd b0 37 46 3d 36 d2 0d be 0e 89 0a be
       -0.0637794 0.04839295 -0.1384972 -0.13528845

fcn.3.bias f4 [64]
000000 7a 19 2e 3b 55 2f 0d 3c d0 d7 b5 bd 6c 1d 42 3e
       0.0026565478 0.008617242 -0.088790536 0.18956536
000010 bd f2 3e 3d 33 6a 3b 3d 6b 50 ce 3d c2 cd 59 be
       0.046618212 0.045755576 0.10073932 -0.21269897
000020 10 13 64 bd c5 5c 82 bd 10 9b 2b be 7e 22 fa 3d
       -0.055682242 -0.06365351 -0.1675837 0.1221361
000030 89 8e 36 3d ee ec 07 be a7 75 77 be bd ae 3d 3e
       0.044569526 -0.13273975 -0.24165975 0.18523689
000040 f8 82 12 3d 96 16 8e bd 5a d8 85 3c 3c 47 02 3e
       0.035769433 -0.06937902 0.016338516 0.12722486
000050 9f 4e 89 3e f1 7d 10 3e 0a 4d 7f bd 08 b5 4e 3a
       0.26817796 0.14110543 -0.06232933 0.0007885252
000060 43 3b de bd 62 9f ab 3c 17 b9 17 be f7 61 94 be
       -0.10851147 0.020950023 -0.148167 -0.2898099
000070 7c 0e e0 bd e9 2b 35 be 1c 7b 74 bd 9f b4 57 be
       -0.10940263 -0.17692532 -0.05968772 -0.21064995
000080 fb 7a 43 be d9 dd fc bd 97 31 dd bd 3c 40 2e 3d
       -0.19089882 -0.123470016 -0.10800474 0.042541727
000090 d4 2b 12 3e d0 f9 4e bd 16 7a c9 3c 88 2a e9 3d
       0.14274532 -0.05053121 0.024594348 0.11385065
0000a0 51 80 f9 bd 70 a0 89 3c d9 dd d0 bd fe f8 8d be
       -0.121826775 0.016800135 -0.10198564 -0.27729028
0000b0 19 2e 25 bd 88 89 1f bc d6 2b 52 3e 93 6d 08 be
       -0.040327165 -0.00973738 0.20524535 -0.13323049
0000c0 ae b7 24 be 5e 5e d6 3c 8f 07 41 be aa aa 30 3c
       -0.16085693 0.026168045 -0.1885054 0.010782877
0000d0 38 be 21 be 13 53 68 bd 98 95 c9 bd 67 07 36 be
       -0.15795219 -0.05671985 -0.09842986 -0.17776261
0000e0 46 85 05 be 37 1d fc bd 3c 66 4e bd bc 47 d0 3c
       -0.13039121 -0.1231026 -0.050390467 0.02542483
0000f0 97 a8 d8 3d f2 3e df bd 4d da 68 bd 42 65 09 bb
       0.10579031 -0.10900678 -0.056848813 -0.0020964895

fcn.3.weight_g f4 [64, 1]
000000 e8 81 b0 3f 53 c4 bf 3f 27 f7 81 3f ef 7f 46 3f
       1.3789644 1.4981788 1.015355 0.7753896
000010 6d be b9 3f 02 b6 a0 3f 45 e7 4b 3f 04 67 20 3f
       1.4511238 1.2555544 0.79649764 0.6265719
000020 4f da 55 3f 1b b1 54 3f 49 88 2a 3f e1 27 5c 3f
       0.8353624 0.8308274 0.66614205 0.8599835
000030 43 4d 7b 3f 0e 64 9b 3f 29 52 0b 3f 3f 6e 26 3f
       0.9816477 1.2139909 0.5442224 0.6501197
000040 92 0d 5e 3f 97 f0 9e 3f 59 43 06 40 ea 8d d9 3f
       0.86739457 1.2417172 2.0978606 1.6996434
000050 98 50 20 3f e7 4a 82 3f 10 f4 25 3f 6b 8e 9d 3f
       0.62622976 1.0179108 0.64825535 1.2309088
000060 7d 42 13 3f d7 9c 00 40 85 fa 86 3f 2c b5 05 3f
       0.5752333 2.0095727 1.0545202 0.5222957
000070 af d9 18 3f 9d d3 10 3f 2b db 31 3f d4 fe 0c 3f
       0.5970716 0.56572896 0.6947505 0.55076337
000080 09 5a 1f 3f 21 38 2b 3f 19 55 40 3f 5f 85 94 3f
       0.6224676 0.6688252 0.7512985 1.1603202
000090 cb 16 6d 3f e5 b1 47 3f d5 45 74 3f 03 f2 78 3f
       0.92612904 0.7800582 0.95419055 0.9724428
0000a0 87 cc 28 3f 9f bf e3 3f d8 0c 0c 3f e9 29 f0 3e
       0.65937084 1.7792853 0.547071 0.46906975
0000b0 00 95 a0 3f 20 91 de 3f 67 d9 10 3f 5c 8b 48 3f
       1.2545471 1.7388039 0.5658173 0.78337646
0000c0 57 bb 2b 3f 05 5f 97 3f e4 89 04 3f 0b fd ac 3f
       0.6708273 1.1825873 0.51772904 1.3514723
0000d0 62 df 10 3f 24 86 3f 3f 86 0b 15 3f 75 91 ad 3f
       0.56590855 0.7481406 0.5822071 1.3560015
0000e0 7e 62 2a 3f c8 12 3a 3f 48 bc d8 3f a4 0d d4 3f
       0.6655654 0.7268491 1.6932459 1.6566663
0000f0 af 9e 3a 3f 90 78 36 3f 44 10 34 3f d6 77 ac 3f
       0.7289838 0.71277714 0.7033732 1.3474071

fcn.3.weight_v f4 [64, 64]
000000 5b 08 c2 3b b6 75 d8 3e 50 8c 00 80 80 c1 4f 81
       0.005921406 0.42277306 -5.0335e-41 -3.8158725e-38
000010 81 56 9c be c7 af d8 3f 46 73 2d 3c 63 1e 0c 82
       -0.30534747 1.6928643 0.010586565 -1.0294296e-37
000020 04 56 8b 3b 80 ed f4 bb 24 f2 f1 b8 46 b2 38 3d
       0.004252197 -0.0074746013 -0.00011536878 0.04509189
000030 c0 45 c2 3b 31 b5 14 bc 4c 69 30 82 36 01 48 3d
       0.005928725 -0.0090764025 -1.2960657e-37 0.04882928
000040 8f 9c d1 3b 8e 5d ad 3b d3 a3 94 3b 62 ca 09 3c
       0.006396837 0.0052906936 0.004536131 0.008410068
000050 ca 30 fb ba dd 36 07 bb 13 47 eb 3d 16 06 d6 00
       -0.001916432 -0.0020632066 0.11488166 1.965498e-38
000060 3b a6 ad b6 70 cb 7c 80 54 0a a3 81 65 1c 60 be
       -5.1751535e-06 -1.1460581e-38 -5.9891564e-38 -0.21885832
000070 d9 d9 96 bd 09 f1 f9 3f a5 0a 07 01 f0 7c 29 3c
       -0.0736577 1.9526683 2.480322e-38 0.010344729
000080 d2 8b fb 3e 6e 6b f3 3b b7 d9 4b 82 fb 4c ca 3c
       0.49130112 0.007428578 -1.4976566e-37 0.02469491
000090 61 eb b1 3b a9 2c eb 3e 2e ed 50 bd 93 8b b6 3c
       0.0054296707 0.4593251 -0.051007442 0.022283351
0000a0 a4 01 ca 3e 97 cd a1 be d8 76 7f 3c fb c0 36 bd
       0.39454377 -0.31602165 0.015592299 -0.044617634
0000b0 47 5f bb 3c c1 ec c0 3c ad fb 5f 3f 38 dd 10 bc
       0.02287258 0.023550393 0.874934 -0.008841805
0000c0 2a 7a a7 9d f6 04 73 02 63 fe cd 3d 94 6c 08 bb
       -4.4330847e-21 1.7854244e-37 0.10058286 -0.002081667
0000d0 9a b7 ae 3d 11 20 ab ba d8 4e 30 3c cc 96 a3 3b
       0.08531113 -0.0013055821 0.010760985 0.0049923416
0000e0 ce 7f d8 3d 95 3d c4 3d fc ca 47 bb 74 ef 31 bb
       0.10571252 0.09582058 -0.0030485978 -0.0027150782
0000f0 32 a1 b9 ba c1 1a 17 b9 a0 f3 9a bc 91 de c1 bb
       -0.001416242 -0.00014410449 -0.018914998 -0.0059164246
000100 ba 98 51 bb 3f a2 e3 bc 76 59 24 00 be 47 d8 1a
       -0.0031981901 -0.027787326 3.33817e-39 8.945141e-23
000110 e4 ea 18 bd 81 9f 1c 3d df e1 86 3b 0e 13 88 9e
       -0.037333384 0.038238052 0.0041162814 -1.4407441e-20
000120 92 ca 48 ba 42 40 ae 3c fe 0c 08 bc 7b 20 b3 bb
       -0.000765958 0.021270875 -0.008303879 -0.0054665185
000130 42 8b 44 ba ef db ef bb 77 c5 1c 35 c3 3a 8d bc
       -0.00074975577 -0.0073199193 5.840188e-07 -0.017239934
000140 8d 83 fb bc e4 43 e5 ba c2 65 38 ba e3 74 12 ba
       -0.030702377 -0.0017491546 -0.0007034206 -0.00055868755
000150 e8 10 85 3c 80 57 27 ba 74 da e5 bc 9a fb 0f 26
       0.016243413 -0.0006383583 -0.028058268 4.9954075e-16
000160 65 f9 ae 3a bb 3e 95 2a db 4f a0 a4 55 d9 64 bd
       0.0013349472 2.6511245e-13 -6.952422e-17 -0.055871326
000170 57 d6 f6 bd c9 6c 09 3d 5a 49 b7 11 7a fe 1f 3d
       -0.12052601 0.03355101 2.8917516e-28 0.039061047
000180 97 dc cf bc d8 41 ed ba a6 94 ee 3a b1 23 46 3e
       -0.02537374 -0.0018101288 0.001820226 0.19349553
000190 32 be d8 ba 3a 8d f8 bc 4b 8d a2 bb bc 1c cf 3d
       -0.0016536175 -0.03034078 -0.004960691 0.101129025
0001a0 9a 44 07 bd 9f a0 1d be e2 1b 07 3d 64 c9 cf 3c
       -0.033024408 -0.15393303 0.032985575 0.025364585
0001b0 6b bf 0d bd 7a 11 06 bc e6 eb 41 3d 31 8e 95 bc
       -0.03460638 -0.008182878 0.04734411 -0.018256279
0001c0 f4 52 8f 19 f5 46 9f 80 a1 59 a4 3d 28 d4 3e 3d
       1.4819358e-23 -1.4627298e-38 0.08024908 0.046589047
0001d0 f8 23 c4 3c b9 6e ea 3c d0 20 1d 3d 8e 27 da b9
       0.023942932 0.02861725 0.03836137 -0.0004160967
0001e0 f4 8c 4b 3d 98 53 91 3a 98 89 29 b7 17 0d a5 be
       0.04969497 0.0011087535 -1.0105221e-05 -0.3223655
0001f0 de 93 7e bc 71 2a ea bd 77 85 92 be 42 72 5b bb
       -0.015538184 -0.11433876 -0.2861745 -0.003348485
000200 bf 2e 8c bb 64 97 e4 b8 00 67 46 98 4a e9 30 15
       -0.0042780335 -0.00010900086 -2.5642902e-24 3.572695e-26
000210 94 6e 48 3e 72 dc 0a bb fe 3f 31 3d 0b 7d 82 a2
       0.19573432 -0.0021188525 0.04327392 -3.5368965e-18
000220 7e ba 4d 3b 1e 3a e5 bd e3 a2 0a bd 28 43 bf 3c
       0.0031391676 -0.111927256 -0.033846747 0.023347452
000230 e1 45 c7 3a 81 0c c3 bd 9d a9 94 b4 f7 55 8f 3b
       0.0015203321 -0.09523869 -2.7690558e-07 0.0043742615
000240 7e 69 a6 3d fa b7 49 3b 8c 5b 0a bb db 4c c3 bc
       0.0812559 0.0030779825 -0.0021111695 -0.023840358
000250 13 b0 1f 3e f9 8e ba 3d 14 90 95 3d 9f 26 de 24
       0.1559451 0.09109301 0.07302871 9.634258e-17
000260 8e c9 21 a0 1f 1c 15 29 bf 82 d8 26 63 45 6f bd
       -1.3703919e-19 3.3109037e-14 1.502345e-15 -0.05841578
000270 bb 1a fa 3c d9 7e 3c ba 31 bc 0c b8 71 9e 78 be
       0.030530324 -0.00071905326 -3.3553868e-05 -0.2427919
000280 29 f0 5e 3d 77 15 4a bc fe 32 ba 21 b2 f3 46 be
       0.054428253 -0.012334219 1.2617348e-18 -0.194289
000290 92 42 10 3b bb d6 df 3d 69 3e 89 3d 3f 11 40 bd
       0.0022012335 0.109296285 0.06701357 -0.046891447
0002a0 f6 7e 86 3d d5 1f f0 bc 26 07 1a be df 17 fd 3d
       0.065671846 -0.029312054 -0.1504179 0.12358069
0002b0 f1 84 f8 bb 29 ae 1f 3d fd 3d 20 3e 5b 4a c0 bd
       -0.007584207 0.03898445 0.15648647 -0.09389182
0002c0 1b d1 56 a7 2c d6 53 2d 05 89 59 bd c8 e7 20 be
       -2.9811822e-15 1.2041517e-11 -0.053109188 -0.15713418
0002d0 35 02 5c bd 6d 2b d3 bd 19 22 5a be 4d c9 29 3b
       -0.053713042 -0.10311017 -0.2130207 0.0025907338
0002e0 bb f0 f1 bd 0c a2 99 3c a4 61 9f a2 12 42 1b bc
       -0.11813494 0.018754028 -4.3200417e-18 -0.009476202
0002f0 eb 04 8b bc 99 96 98 bb 94 a8 52 3e 67 a3 8f be
       -0.016970119 -0.0046566245 0.2057212 -0.28054354
000300 f0 6d 38 bd 28 43 05 bc c9 50 0e ae 9b e8 08 22
       -0.04502672 -0.008133687 -3.2358814e-11 1.8554577e-18
000310 0b dd ee 3d 7a 60 1e 39 1e 52 f3 3c 9a 10 a0 1d
       0.11663254 0.00015103995 0.029702242 4.2368813e-21
000320 94 cc e4 ba 30 10 3c 3e cf 59 dd bd ba 54 a9 bc
       -0.0017455989 0.1836555 -0.10808145 -0.020670284
000330 00 dc 06 bb e6 75 6b be f8 e6 ec 30 22 33 99 bb
       -0.0020577908 -0.22994193 1.7236905e-09 -0.004675285
000340 a2 27 25 bc 8f 51 b1 ba 14 05 9b bb c5 f9 cc bb
       -0.01008025 -0.0013528335 -0.00473083 -0.006255361
000350 29 3e 50 3e 2a 00 1f 3e b4 22 bb 3d c6 63 2a ba
       0.20336212 0.15527406 0.091374785 -0.0006499853
000360 7b 1d 95 31 14 bd c5 a7 79 7c 84 b0 bf db ae 3d
       4.3398223e-09 -5.4883483e-15 -9.639641e-10 0.08538007
000370 da 27 28 bd 3f ce 99 ba b2 d8 22 30 e9 33 88 bd
       -0.04105363 -0.001173444 5.92432e-10 -0.06650526
000380 b5 55 5e bc 23 ba 0d bd b2 06 a7 a1 6e c4 77 bd
       -0.013570239 -0.034601342 -1.1318132e-18 -0.060490064
000390 42 c1 c1 ba da c6 e1 bc a3 84 33 3c c8 63 d2 bd
       -0.0014782327 -0.02756064 0.010956916 -0.10272938
0003a0 e8 7f 1d bc 70 79 0d bd f7 aa 0b bd e6 c9 78 3d
       -0.009613015 -0.03453964 -0.03409859 0.06073942
0003b0 37 2e 2c bc 93 14 ed bc 8d d1 c6 bd 84 2b 4e bd
       -0.010509065 -0.028940475 -0.097079374 -0.05033447
0003c0 e7 a9 fb 3a ab 49 93 ba 05 43 75 3c 84 14 b5 3d
       0.0019200415 -0.0011237165 0.014969592 0.08841804
0003d0 e6 8b e3 3c 2e 0a 8e bd 9a 31 33 bd 35 f7 30 bb
       0.02777667 -0.06935535 -0.043748476 -0.0027002816
0003e0 c7 9c 2d bd 24 b0 9c 3e e8 a0 f0 19 89 d4 1d 3b
       -0.042385843 0.30603135 2.4880408e-23 0.002408298
0003f0 f8 2f e9 3a 05 0a d8 bb f3 8f 2a be a4 50 f3 be
       0.0017790785 -0.0065929913 -0.16656475 -0.4752246

fcn.4.bias f4 [64]
000000 ef 9e 5e bc 19 7a 2c 3c 9d c1 0b bd e6 64 02 3c
       -0.013587697 0.010527157 -0.03412019 0.007958626
000010 af 28 6e bd 24 1e 96 bc 9e 24 50 3b ae e4 b6 3a
       -0.058144268 -0.018324919 0.0031760107 0.001395365
000020 8c 6b ef bc 62 a6 8e b9 e9 35 56 bc 04 7b 45 b9
       -0.029226087 -0.00027208315 -0.013074377 -0.00018833211
000030 b1 7e 9b 3b 89 46 1c bb 59 d9 1d 3c f2 52 b7 b9
       0.0047453274 -0.0023845753 0.009634339 -0.0003496628
000040 25 5d 1f ba a2 ed 14 bd f6 6b 32 bb 4f 68 86 b9
       -0.0006079248 -0.036359437 -0.0027224994 -0.00025636188
000050 b8 c8 dc bd 4e 65 14 3c 1d 22 f6 bb f3 03 63 bb
       -0.107804716 0.009057356 -0.007511391 -0.0034639805
000060 c9 15 fb bb 83 3b ca bc 36 73 b9 bb 88 8c df 3b
       -0.007662509 -0.02468658 -0.005659486 0.0068221726
000070 aa 60 b5 ba 28 d9 11 3c 88 36 39 bb 6f 5e bc ba
       -0.0013838012 0.008901872 -0.0028261263 -0.0014371405
000080 1a 71 43 bc 8d 2c c0 b9 9d d2 1f bc 8d e6 b5 bb
       -0.011928821 -0.00036654287 -0.009754804 -0.0055511654
000090 00 8a 5e bc d3 07 8a bb 13 7a a4 bd 29 82 41 bb
       -0.013582706 -0.0042123585 -0.08031096 -0.0029527044
0000a0 c8 17 20 bc d1 1c 90 bc 27 f2 36 ba 9d c3 78 bb
       -0.009771295 -0.017591866 -0.00069788325 -0.0037958391
0000b0 43 ba 37 bb bb b1 82 bd 0b 99 44 bc 5c 35 08 bc
       -0.0028034605 -0.06381556 -0.011999379 -0.008313503
0000c0 d0 9e 5e bd ba a0 42 bc 07 9f ce bb 81 1d 26 b8
       -0.054350674 -0.0118791405 -0.0063055786 -3.960496e-05
0000d0 db fe a7 bd 79 10 c4 b9 18 35 40 bd ce 04 16 3c
       -0.08202907 -0.00037396306 -0.046925634 0.009156419
0000e0 d2 99 ee bb 33 03 39 3b ec 66 bb bc 5d fc ab bb
       -0.0072815204 0.0028230667 -0.022876225 -0.00524859
0000f0 84 34 c0 bd a7 0b d4 bb 2e 35 08 bd 27 b3 79 39
       -0.093850166 -0.0064711156 -0.03325384 0.0002381323

fcn.4.weight_g f4 [64, 1]
000000 44 cb 21 40 33 92 98 40 a4 96 32 40 65 4b 62 40
       2.5280313 4.7678466 2.7904444 3.5358517
000010 cb 5f c7 3e f0 6f 41 40 e4 58 c6 40 e1 42 a4 40
       0.38940272 3.0224571 6.198351 5.133164
000020 40 e7 0e 40 38 e7 55 40 01 ea 53 3f 2e c7 d4 40
       2.2328644 3.3422375 0.82778937 6.649314
000030 ac 51 9b 40 59 ba 8f 40 fa 8e 76 40 79 b4 ae 40
       4.8537197 4.4914975 3.8524766 5.4595304
000040 d8 39 93 40 57 20 09 40 78 bd 6a 40 b8 fa 9b 40
       4.600811 2.1425989 3.6678143 4.8743553
000050 13 bd c8 3e 4b f6 6c 40 4d 58 30 40 b0 3a 41 40
       0.39206752 3.7025325 2.7553895 3.019207
000060 00 46 58 40 08 bb 25 40 0d 2a 49 40 ac e1 a7 40
       3.3792725 2.5895405 3.1431916 5.246298
000070 10 48 7d 40 f0 11 2a 40 dd 95 86 40 bf d7 c6 40
       3.9575233 2.6573448 4.205794 6.213836
000080 46 b4 32 40 3f 37 79 40 36 ea 22 40 15 7e 71 40
       2.792253 3.893997 2.545545 3.7733204
000090 de 13 2d 40 3f e2 35 40 93 60 d7 3e 08 6a 76 40
       2.7043376 2.841934 0.42065868 3.8502216
0000a0 04 e6 32 40 8c 8f 49 40 18 5f 85 40 e9 27 8e 40
       2.795289 3.1493864 4.167858 4.442372
0000b0 17 38 67 40 5e b6 ca 3e 3f 8d 27 40 66 02 07 40
       3.6127985 0.3959226 2.617996 2.1095214
0000c0 3d f0 19 40 cb 64 6a 40 21 52 5c 40 7d 9a 5e 40
       2.405288 3.662402 3.4425128 3.4781792
0000d0 6c cf d2 3e fe 84 9a 40 cd 05 08 40 ed e2 43 40
       0.41173875 4.8287344 2.125354 3.0607255
0000e0 70 cc 26 40 0f d5 64 40 a4 18 2d 40 a0 e8 4d 40
       2.6062279 3.575504 2.704629 3.2173233
0000f0 df 06 e4 3e 0b 2e 50 40 58 f7 19 40 ce a6 be 40
       0.44536492 3.2528102 2.4057217 5.957862
