oct8_deep_sdf/jackiel4_2dDeepSDF/experiment_/ModelParameters/latest.pth (torch, 90498 bytes, 19 tensors)

fcn.0.bias f4 [64]
00000000: 0597 d7bc 117e bdbe 53e5 3fbd 1a1a e3bd
00000010: c118 233e 83e6 b9be 9e21 fabd 9bf1 88bd
00000020: b005 ebbd 42ed a8bb 260b aa3e 2b14 a8bd
00000030: 9107 b2bd 09c7 dbbd c841 9a3e 8fd1 78be
00000040: 9882 f3bd d66a 73bd 014d 743e 7617 a6be
00000050: 7b57 763e a4dc a03d 656e 863d dc01 62be
00000060: 77a8 f7bd 1971 b9bc 426f b3be 9382 07be
00000070: 7441 90be cf52 3fbe 1b19 0dbe 63ab debd
00000080: 8e73 03be 4cab 853d 2d18 74be 8922 0ebe
00000090: 6b24 05be 9e95 e43c 2588 f5bd 6314 363e
000000a0: c3d3 15be b342 4cbe a44e 033e bfdd d33c
000000b0: b74d 1f3d a614 19be 2e8a 03be e90b 9f3e
000000c0: e635 1cbe 03c3 5ebe a09e 1f3e b0c5 f4bd
000000d0: 5f12 debe 5a88 6cbe 7496 92bd 3c94 3ebe
000000e0: 2184 77be a7e6 543d 0957 143e 53b0 92be
000000f0: 6594 ba3e 8fe1 b1be f58a a9be b6f6 b43e
-0.026317129 -0.37010244 -0.04684956 -0.11088963 0.15927412 -0.3630868 -0.12213443 -0.066867076
-0.11475694 -0.0051552365 0.3321163 -0.08206972 -0.086928494 -0.10731322 0.30128312 -0.2429869
-0.11890143 -0.05942806 0.238575 -0.32439774 0.24056809 0.07854584 0.06564025 -0.22071022
-0.12092679 -0.022636937 -0.3504582 -0.13233404 -0.28174937 -0.18683933 -0.13779108 -0.10872533
-0.1283705 0.06526813 -0.23837347 -0.13880362 -0.13002174 0.027903374 -0.11988858 0.17781214
-0.14631562 -0.19947319 0.12822968 0.025862573 0.038892474 -0.14949283 -0.1284568 0.31063774
-0.15254936 -0.21754079 0.15587854 -0.119517684 -0.4337339 -0.23098889 -0.07157603 -0.18611234
-0.24171497 0.05197778 0.14486326 -0.2865015 0.3644134 -0.347424 -0.33113828 0.35344476

fcn.0.weight_g f4 [64, 1]
00000000: cbc3 7d3f 617d 043f 25b2 d13f 02e3 1c3f
00000010: d617 a43f 02e0 bb3e c6ca 7e3f 76bb 2d3f
00000020: c571 9b3f 806c 0040 46b3 383f 8f12 2c3f
00000030: 8be8 1a3f fa78 2c3f b7f6 2c3f 342e 623f
00000040: cf8a d63e 58df c73e 1061 683f 9d55 ee3e
00000050: 8661 bb3f f228 8a3f 12b1 c73f da48 a43e
00000060: 8850 9f3f 4c0f 9c3f e174 253f a416 833f
00000070: 333c f63e 050e af3f 32a8 2f3f 362a ad3f
00000080: effe 413f 490e da3f 2b7a 903f 9246 c73f
00000090: ddb5 423f 05d3 bd3f 3d64 223f 97e2 613f
000000a0: bf0a 6b3f 01bc d93e 1893 d93f a4b0 fc3f
000000b0: a561 973f fb38 443f 1fb8 b83e a564 0f3f
000000c0: c5d8 703f 7060 e13e 5d58 da3f 572e 8c3f
000000d0: 394c 033f c3a6 b63f 5cec 3e3f b309 1540
000000e0: 0fa2 6d3f 3332 b93f 7dea cb3f 0d08 df3e
000000f0: 9e3a 4b3f e017 c73e bdbe aa3e 8198 1b3f
0.9912688 0.51753813 1.638249 0.61283886 1.2819774 0.36694342 0.9952816 0.6786417
1.2144095 2.0066223 0.7214855 0.6721582 0.6051108 0.67372096 0.67563957 0.8835175
0.41902778 0.39037585 0.90773106 0.46549693 1.4639137 1.0793746 1.5600913 0.3208683
1.2446451 1.2192168 0.6463147 1.0241284 0.48092803 1.3676153 0.6861602 1.3528507
0.7577962 1.703561 1.1287283 1.5568411 0.7605875 1.4830023 0.634342 0.88236374
0.9181327 0.42526248 1.6998014 1.9741406 1.1826674 0.76649445 0.36077973 0.56012946
0.94080764 0.44018888 1.7058216 1.0951642 0.5128818 1.4269642 0.74579406 2.328717
0.92825407 1.4468445 1.5930935 0.4356083 0.7938632 0.38885403 0.33348647 0.6077958

fcn.0.weight_v f4 [64, 5]
00000000: e17e ac3e 12ae 8f3e ac0b 9f3e 8e72 67bd
00000010: 564e 14be 9308 46bd cada 133d 5dbb 66be
00000020: 7ff6 123f 946a 2f3e ee0a f5be f1fb 81ba
00000030: 8670 13be c327 acbe 012d ee3c dbc1 9d3e
00000040: 25d2 9c3e 08d0 f3be 2027 6a3d d8ca 05be
00000050: fbc1 2dbe b453 bcbe 51bb 94be 9631 86be
00000060: 230b 0abe 3b9c 88bc 5603 1f3e 724a 95be
00000070: 2f7a 34be db1c 3e3d 2685 a9be 6260 ce3e
00000080: 7be6 debe 1e23 c33a 8e4f 16be 73dd 04bf
00000090: 104a 85be 19fe 9bbe 68bb db3a e96f 06be
000000a0: 947f 2bbd c624 e03e 5764 bf3e 4f45 98be
000000b0: fc43 ff3c f067 12bf c001 aa3e 2b4d 4d3e
000000c0: c6d5 6bbe 1c47 52be 1825 97bd 573f 143d
000000d0: c0f9 ed3b d848 61bf fafa f5bd 4d62 c9be
000000e0: 5897 013f a90c c33e 0ac7 173c 5fb2 36be
000000f0: b9d3 bfbc c1a9 9a3e 380c 8e3e dd59 0fbe
00000100: 09ee cf3c 4729 833e e411 813e b0cb c5be
00000110: bcc6 023d c4f1 e8bd 99c4 69be aea9 86be
00000120: 7101 413d eb80 f9be 157a 4bbe 3f5c b6be
00000130: a6c9 94be 8ccb ac3e b349 c83d 077a abbd
00000140: 48af a13e 9d5a 9d3e 5690 dbbe 886f dabd
00000150: c5f3 153e ce02 aabe a1d8 e83e f7e2 aa3e
00000160: 3aec 3e3d 76d8 1ebe 7898 a83e f99f 7c3e
00000170: 9a6a 4abe 7ca2 8cbe 5eb8 73be 7412 a63d
00000180: 6c05 3d3d 2430 9e3c c6f3 bd39 7b16 433f
00000190: a2b5 8e3e e7f0 883e db1f 80be d0ee 91be
000001a0: f064 0abe 585a c1bd 5540 7c3e bddf 723e
000001b0: f38e f6be 02c6 dc3d 6d0e 9e3e dc30 9d3e
000001c0: 0776 a0be 662a a0be 5175 8dbd 859d e9bc
000001d0: ece2 e63c c6da f0bd 613c 2c3f 5235 023e
000001e0: 91f8 3cbd 9ec1 e53e 728b c93e 6d52 9dbe
000001f0: 4b1c 1a3d 26a9 c23e 7d6f 9f3e 4e1a b23e
00000200: bda7 9bbd 9e77 20be b3e4 fc3c 6e01 b13c
00000210: 0d79 203d 88fc 92be 179f 653f 2e3f acbe
00000220: 4d4d d63e 68a0 e7be b6c4 773b cee0 1abe
00000230: 0c14 f93d 19b1 4fbd 7b91 203e f603 83be
00000240: f6ca b4be d446 91be efec be3e c4ef c6be
00000250: 81c4 ddbd f9c3 25be adb3 9ebe 99e7 bc3e
00000260: 99f2 973e 399d 4bbd 8108 00bd a0a8 e23e
00000270: 4092 d6be cf83 73be 039e d13b 021e 39be
00000280: 5da2 9bbe b78e c33e b671 d2be 4482 1b3d
00000290: 483b f2bd 630d 07bf e257 9d3e 1dd6 4a3e
000002a0: 527d 7fbe ad15 42be 12a3 5c3e 7a7e 943e
000002b0: bafb 02bf b9f5 12bc c652 75be 1d22 dd3e
000002c0: a3c0 a7be 54b7 8dbe 32d9 0cbe ab88 4ebe
000002d0: d5e2 f73e e90d f9be 9f49 89be ddf2 7bbe
000002e0: 8300 e73d c295 a83e 92bd 71be b6ea d33e
000002f0: e98a 6ebe 6a1a 15be a728 8cbe dd07 c83e
00000300: 3f9b 8e3e e72a 8b3d 2a71 00be 225e 823e
00000310: 2ac8 3a3e da2f 2fbe 978b 1bbe a244 41be
00000320: c63d de3e 8aa7 cbbe 0c35 79be a222 863d
00000330: dd36 0cbe 779c 9abd 65c2 cabd e5a2 04be
00000340: 7eb6 e13e cdd8 f0bd 954d 26be 2b8b a7be
00000350: b357 8dbe 5f7d 82be 1ea4 c2bd feaf 5a3e
00000360: bfa4 8f3e ee6d a5be 5522 bebe c809 af3c
00000370: 7f5e 9bbe 5f3e 373e 07f9 eb3d 9e67 04be
00000380: 9197 e4bd 2254 663e 264c ebbe 47e7 8f3e
00000390: 5305 3f3d 9dfe dbbd 6c74 863e 56c3 f4be
000003a0: 4156 a43e 3339 613e ae3d b1bd e9b3 e93d
000003b0: 2ca8 a53d bc23 2cbd 1aa4 ddbe 551a 84be
000003c0: 74ca 733e 519c 01bf 2af3 9a3e b8bb 8c3c
000003d0: b6a6 f9bd eacb 0c3e 1741 7dbc a960 2fbe
000003e0: cab4 64be 84e2 a7be 3d19 edbd 8de1 8abe
000003f0: b6ca 5abe 17f2 26be d8dc cdbd 5ab2 c03e
0.3369055 0.28062493 0.31063592 -0.056505732 -0.14483008 -0.04834802 0.036097325 -0.22532411
0.57407373 0.171305 -0.478599 -0.0009917003 -0.14398393 -0.33624086 0.029074194 0.30811962
0.30629078 -0.47619653 0.05716622 -0.1306566 -0.16968529 -0.3678261 -0.2904916 -0.26209706
-0.13480811 -0.016676059 0.15528616 -0.2915836 -0.17624734 0.046414237 -0.33109397 0.4030791
-0.43535218 0.0014887785 -0.14678785 -0.51900405 -0.26033068 -0.304673 0.0016764225 -0.13128628
-0.041869715 0.43778056 0.3738124 -0.29740378 0.031160347 -0.57189846 0.3320446 0.20048968
-0.23030767 -0.20534939 -0.07380122 0.036193218 0.0072624385 -0.88001776 -0.120107606 -0.3933281
0.5062156 0.38095596 0.009263763 -0.1784148 -0.023416387 0.30207637 0.27743697 -0.13999124
0.025382059 0.2561743 0.25208962 -0.38631964 0.03192781 -0.11374238 -0.22828902 -0.2630133
0.047120515 -0.4873117 -0.1987079 -0.35617253 -0.29060096 0.33749044 0.09779682 -0.08372884
0.3157904 0.30733195 -0.42883557 -0.10665804 0.14643772 -0.33205265 0.45477775 0.33376285
0.046612002 -0.15512261 0.32928824 0.246704 -0.19767228 -0.27467716 -0.23800799 0.081089884
0.04614775 0.019310065 0.00036230515 0.7620618 0.2787295 0.26746294 -0.25024304 -0.28502512
-0.13515067 -0.0944106 0.24633916 0.23718162 -0.48155937 0.107799545 0.3087038 0.3070134
-0.31340048 -0.31282347 -0.06907142 -0.028517494 0.028184377 -0.11760478 0.6727963 0.12715653
-0.04613549 0.4487428 0.393642 -0.30726948 0.03762464 0.38019675 0.31139746 0.34785694
-0.07600353 -0.1567063 0.030870771 0.021607127 0.039177943 -0.2870829 0.89695877 -0.33641952
0.4185585 -0.45239568 0.0037806458 -0.15124819 0.12162027 -0.050706003 0.15680496 -0.2558896
-0.35311097 -0.2837435 0.3729014 -0.38854802 -0.10828496 -0.16188039 -0.30996457 0.36895445
0.29677275 -0.049710486 -0.03125811 0.44269276 -0.41908455 -0.2378075 0.0063970103 -0.18077853
-0.3039731 0.3819482 -0.4110238 0.037966028 -0.11827713 -0.527548 0.30731112 0.1980824
-0.2495015 -0.18953581 0.21546581 0.29002744 -0.51165354 -0.008969718 -0.23957357 0.4319009
-0.32764158 -0.2767893 -0.13754728 -0.20169322 0.48415247 -0.48643425 -0.2681398 -0.24604364
0.112793945 0.32926756 -0.23607472 0.41390008 -0.23295178 -0.14560857 -0.27374765 0.390685
0.27852818 0.06795292 -0.12543169 0.25462443 0.18240419 -0.17108098 -0.15189968 -0.18873838
0.43406504 -0.3977626 -0.24336642 0.065495744 -0.13692804 -0.075493746 -0.09900359 -0.12952764
0.44084543 -0.117601015 -0.16240533 -0.32723364 -0.27605972 -0.25486276 -0.09503959 0.21356198
0.2805538 -0.32310432 -0.37135568 0.021366969 -0.30345532 0.17894886 0.115221076 -0.12930152
-0.111617215 0.22493032 -0.45956534 0.28106138 0.046635937 -0.10741923 0.26260698 -0.4780528
0.32097057 0.21994476 -0.086543426 0.11411268 0.08088717 -0.042026266 -0.43289262 -0.2580134
0.23807698 -0.50629145 0.30263644 0.017179355 -0.12190001 0.13749662 -0.015457413 -0.17126717
-0.2233459 -0.32790005 -0.115770794 -0.27125207 -0.2136639 -0.16303287 -0.10051888 0.3763607

fcn.1.bias f4 [64]
00000000: 548f 5bbc 146d e0bd cb8e 56bd ea6b 5a38
00000010: 6687 c8bc fc7e 9cbb 2ff9 dcbd 0f21 7ebc
00000020: 737a d1b9 b557 2b3c c04f 6fba 6769 fbbc
00000030: abb1 bbbc 56a9 10be aa4e 40bc bfbd dfbc
00000040: 8e82 e5bd a958 2ebb c622 27bc f750 fcb9
00000050: be03 88bc 582d eabb dc71 12bc d940 08bd
00000060: 1d71 5bbd a639 74bb dfbf d2bb 4c43 5139
00000070: 09e9 16bb 9d7e efbb 2561 74bd b544 60bb
00000080: 5c42 3dbd f162 5f39 511d d6ba 9d60 1bbd
00000090: daec 10bd 908f 2139 c36c 98bc 03db 8bbb
000000a0: c57a f1bd 5277 d0bd 4063 70bd ea6a 0e3a
000000b0: d589 32be b256 3bbd eeb2 04be 963f edb9
000000c0: 9087 ffbb eec1 24bb ec24 04bc 598a d3bd
000000d0: 26de 20bd e87f 96ba 7ef2 9fb8 a0ef 22b9
000000e0: de36 13bd ef86 24bc 33f0 a7bb 5e4e 2fbd
000000f0: a94b 7fba 2420 91bb b3f0 0dbd 95a7 c139
-0.013400871 -0.10958305 -0.05238227 5.2075753e-05 -0.024478626 -0.00477588 -0.107897155 -0.0155108115
-0.00039954818 0.010457923 -0.000912901 -0.030689908 -0.022911867 -0.14127097 -0.011737505 -0.027312158
-0.11206542 -0.0026603139 -0.010201162 -0.0004812551 -0.016603347 -0.0071465187 -0.008938279 -0.03326497
-0.05357467 -0.0037265806 -0.006431564 0.00019956863 -0.0023027083 -0.0073087947 -0.059662957 -0.003422064
-0.046205863 0.00021303796 -0.0016335641 -0.037933934 -0.03538213 0.00015407638 -0.01860655 -0.0042680516
-0.117909946 -0.101790085 -0.058688402 0.00054328016 -0.17435391 -0.045736976 -0.12958881 -0.00045251538
-0.0077981427 -0.0025140005 -0.0080654435 -0.10329122 -0.039274357 -0.0011482211 -7.6268785e-05 -0.00015538791
-0.035940997 -0.010041936 -0.0051250695 -0.042799346 -0.0009738752 -0.0044288803 -0.034653377 0.00036936687

fcn.1.weight_g f4 [64, 1]
00000000: f586 d73f 1f0a e83e cc90 973f 7b09 3f40
00000010: 4218 f13f 8420 5140 39e3 923f a683 db3f
00000020: 7119 1940 e570 6240 0cb2 5f40 b067 ee3f
00000030: 8c03 bd3f 3db0 ce3f 252a 0440 deca b83f
00000040: 5b84 e33e 0114 d53f 37d1 f63f 954f 8840
00000050: 04e6 0040 03e7 2640 2cad cd3f 4780 bb3f
00000060: f8be b93f ed47 ca3f 7ca2 2e40 838b 5340
00000070: 6f28 3540 c917 cb3f 2db5 7a3f a250 2c40
00000080: 77eb d53f 4c1f 3a40 6197 1a40 6a39 c93f
00000090: 5e27 b63f f030 e93f 80bf f53f e82a dd3f
000000a0: 0130 ed3e 090d fa3e cb31 b63f c757 8340
000000b0: 4f24 9e3f a689 fa3f 733f bd3f 6ba3 4240
000000c0: 8ff1 fb3f eb25 0f40 d1eb de3f d8f2 c73e
000000d0: 2253 b23f 1f01 5f40 c02e 1740 58ad 6440
000000e0: 2055 0640 9d45 0840 8be1 3340 f4da ab3f
000000f0: 4ce6 0e40 af26 f73f b573 d13f 8435 3640
1.6838061 0.45320222 1.1841063 2.9849536 1.8835528 3.2676096 1.1475593 1.7149551
2.3921778 3.5381405 3.495242 1.8625393 1.4766707 1.6147534 2.0650723 1.443691
0.44436917 1.664673 1.9282597 4.2597146 2.014039 2.6078498 1.6068473 1.4648522
1.4511404 1.58032 2.7286673 3.3053901 2.8305929 1.5866634 0.979327 2.6924214
1.6712483 2.9081602 2.4154894 1.5720646 1.4230764 1.821806 1.9199066 1.7278719
0.46325687 0.4883807 1.4233946 4.104465 1.235483 1.9573257 1.4784988 3.0412242
1.9683093 2.2366893 1.7415715 0.39052463 1.393162 3.4844434 2.3622284 3.57308
2.0989456 2.1292489 2.810641 1.3426194 2.2328062 1.930868 1.6363436 2.8470163

fcn.1.weight_v f4 [64, 64]
00000000: 20f8 2abd f75b 04bc dbe4 64be fb9b 0fbe
00000010: 874b 923c 2c11 1800 fbdc 61bd 6d9d 6ebd
00000020: 5c41 bfbc f256 0bbd bd3f febd 496d 52bd
00000030: ee8e 953e a801 e83e ec06 15be a279 5f3d
00000040: ba34 a63e 4ad3 45bd fedf 923d 5fcf 30bd
00000050: bf4f 263d 1edc f6bc 1a6a 11bd c943 13bb
00000060: 5ed6 15bc 60ff e6bc 7743 46bd c80d 52bd
00000070: 5c4c da00 3973 8fbe 1e76 863e 570a 353b
00000080: c0c9 11bd c06b 503c a633 38be 6db8 c7bd
00000090: e0f6 97bb e8ec 8ebd 1541 e93e 1d1e 9cbc
000000a0: 5b00 6e3a cdb0 74ba 3e38 14be 40e2 fdbb
000000b0: 5483 3f3d 723c aabd e730 0b3f 9b73 c3bb
000000c0: db22 cf3d 338a 75b7 e719 e93d 8135 b23b
000000d0: e90c 00bc f059 88be 96d7 f53e a1e3 bdbd
000000e0: 1861 593b 5a09 493e dd03 24bd cad1 453e
000000f0: 5a7f 3f3d 6e6f f5b4 4653 4b00 b149 6ebe
00000100: a5b6 5d3d ef35 3b3d c8a4 cf3c caff 273d
00000110: 1315 bbbd 209c db3d 584b 0dbd c427 cebd
00000120: 4c8a 2f3d 7193 bbbd 99cc dcbc 8670 d0bd
00000130: 9c4f 753c cdac 9d3c cdcc 8b3d 118b 83bd
00000140: dca0 d6bd 735d a7bc 8a61 21bd 6dea 0cbd
00000150: a6c0 91bd 7ba1 bd3d 496c 7dbd eb8b 10bd
00000160: ecee b6bc fe34 49bd 229c 4abd 3a3a 30bd
00000170: 2194 bcbd e0ec 223d 102c a4bc ab80 e6bd
00000180: 2ab6 823d d6e8 9dbd 963b 8dbd cd71 893d
00000190: af40 82bd 8c33 a8bc 3a9f a9bd 2130 84bd
000001a0: 271d 28bb e092 4e3c 2d4f efbd 6a53 ad3a
000001b0: c56d 9abd 5a5c cebd 3d62 3d3c 1840 eebc
000001c0: 0ed4 933d 1e31 c03d 4e1b 243d 62f9 823c
000001d0: 95ce e3bd 4b92 bdbd 0f64 893d 2804 3dbd
000001e0: c445 d4bd 79b5 5d3d b121 3dbd 29f3 94bd
000001f0: 2f8b b4bc 87bc c3bd ef73 a1bd c656 533b
00000200: c632 7ebd 0c88 67bc df8a 943d 3694 13ba
00000210: 5226 ecbb ba68 6692 66b5 06bd 51b5 463d
00000220: ae30 b3bb b5d5 513c ad61 e73d 05ec 323c
00000230: dc27 6bbc 44ef aa3a 20a6 f7bc 7337 10bd
00000240: 91cd 06be ec1d a83c 7761 9e3c 014f 06bd
00000250: 5584 acba 193e af3d bbbd 8bbc 8bb6 2fbd
00000260: 7682 86bc 0765 673e 6af7 6bbd 7154 b23e
00000270: 52c8 6035 f09f d5bd 1aee 963c fc80 883e
00000280: b55d 28bd 6398 953c 6af8 eebd 0f97 5ebc
00000290: bffe cfbc fc4d bb3a d943 973c ccc8 2a3c
000002a0: 9e4a 61bd 11cd 3b3d 5d47 8ebc 25f9 3abe
000002b0: 849d 063d b4eb 99bc 72c1 4cbd 74f2 c1bc
000002c0: 2700 6cbc 2787 c6b1 1525 b3bb 1c48 21bd
000002d0: 1712 cf3e b229 09be 2f86 143d dc42 29bd
000002e0: 03eb 943e d3d3 c0ba 611b 0cbc be00 c03a
000002f0: ece2 223e 1f7e 1880 e80e 1d80 41e5 f23c
00000300: 6994 f3bd a808 a7bc 2086 abbc a13b 82bc
00000310: cb37 9cbd aebc 4001 820a d8bd 0c5e 7dba
00000320: 39dc d3be a04d a0be 4794 1bbd 000b bbbc
00000330: a1e3 a9be 1c1b acbc 4ce1 053c ee8b 33be
00000340: fd7e bebd bf35 3a3e 8049 1abd f68c 04bc
00000350: 7e15 46bd b0f6 1a3e 4f76 0fbd eabd 88bc
00000360: a982 bdbe a017 21be 6c3f cc38 dc9d 7b3e
00000370: 2bac 4b00 ed8b e2be 52f7 893d eac4 92bd
00000380: 8ea7 39bd 3c5e 78be 0df9 6f3d 18d4 02bf
00000390: 5989 d4bd 8556 8c3c 501d debc 158b 9abc
000003a0: 3c5b ba3e 6b8c 9aba 5e87 85be 9836 f03a
000003b0: 2389 97be a3c3 f5bb 6c5d b2bc 19f4 a3bd
000003c0: e699 27bc 6eeb d580 708a 50bd b341 adbd
000003d0: 8a31 223d b74a 03bf 9de1 1bbb 3d79 cabe
000003e0: 7290 c13e fff4 873a 1e34 93bd 0a2f 093d
000003f0: bbce 843e 440f 0f00 c27e 5981 0c07 a93c
-0.041740537 -0.008078567 -0.22352926 -0.14024346 0.01785828 2.210212e-39 -0.055142384 -0.0582556
-0.023346595 -0.034018464 -0.12414501 -0.051373754 0.2921061 0.45313764 -0.14553422 0.054559357
0.32462102 -0.048297204 0.07171629 -0.043166514 0.040603396 -0.030134257 -0.035501577 -0.0022470823
-0.009145347 -0.028197944 -0.048404183 -0.051282674 2.0047531e-38 -0.28017595 0.2626199 0.0027624571
-0.035592794 0.012721002 -0.17988452 -0.09751973 -0.004637584 -0.0697878 0.45557466 -0.019057328
0.00090790325 -0.00093342067 -0.1447458 -0.0077479184 0.046756104 -0.0831231 0.54371494 -0.005964709
0.1011407 -1.4635315e-05 0.113818936 0.005438507 -0.007815578 -0.26631117 0.48016042 -0.092719324
0.0033169445 0.19632474 -0.040042747 0.1931831 0.04675231 -4.5715882e-07 6.917535e-39 -0.23270299
0.05412926 0.045705732 0.025347129 0.041015424 -0.09134879 0.10723138 -0.03449568 -0.100661784
0.0428565 -0.091589816 -0.026953029 -0.10177712 0.014972594 0.019247437 0.06826172 -0.06423009
-0.104799 -0.020430302 -0.03939966 -0.034403253 -0.07116823 0.092593156 -0.061870847 -0.035289686
-0.022330724 -0.049122803 -0.049465306 -0.04302428 -0.09207941 0.039776683 -0.020040542 -0.1125501
0.06382401 -0.077104256 -0.06896131 0.06711159 -0.06359994 -0.020532392 -0.08282323 -0.06454492
-0.0025652142 0.01260826 -0.116850235 0.0013223712 -0.07540468 -0.100762084 0.011559066 -0.029083297
0.072181806 0.09384368 0.040065102 0.015988056 -0.11123387 -0.09256419 0.06708538 -0.04614654
-0.10364869 0.054128144 -0.04617471 -0.072729416 -0.022039024 -0.09557443 -0.07883441 0.0032247766
-0.06206014 -0.014131557 0.0725305 -0.000562969 -0.0072067166 -7.270429e-28 -0.03288784 0.04851276
-0.0054684496 0.012807299 0.11297927 0.010920529 -0.014352765 0.0013041277 -0.030230582 -0.03520913
-0.13164355 0.02052208 0.019333584 -0.032790188 -0.0013161997 0.08556766 -0.017058244 -0.042898696
-0.01641963 0.22597133 -0.057609 0.3483005 8.3738007e-07 -0.10430896 0.018424083 0.26660907
-0.04110499 0.01826114 -0.11668475 -0.01358582 -0.025390027 0.0014290209 0.01846497 0.01042385
-0.0550028 0.045849863 -0.017368013 -0.18259104 0.032865062 -0.01878915 -0.04998917 -0.023675181
-0.014404333 -5.7779235e-09 -0.005467067 -0.03937541 0.4044349 -0.13394812 0.03626078 -0.041323528
0.2908555 -0.0014711566 -0.0085514495 0.0014648659 0.15906876 -2.249296e-39 -2.668577e-39 0.029650332
-0.11893541 -0.02038987 -0.02093798 -0.015897574 -0.07627829 3.5400202e-38 -0.10548879 -0.0009665198
-0.41378954 -0.31309223 -0.037983205 -0.022832394 -0.3318148 -0.02100902 0.008171391 -0.17533848
-0.09301565 0.18184565 -0.03766775 -0.008090248 -0.04836034 0.15133166 -0.035024937 -0.01669212
-0.37013748 -0.15731668 9.739291e-05 0.24571937 6.949424e-39 -0.4424738 0.06736626 -0.071664646
-0.04532581 -0.24254698 0.058587123 -0.5110488 -0.103777595 0.0171311 -0.027113587 -0.018865148
0.3639773 -0.0011791115 -0.2607984 0.0018326817 -0.29596815 -0.0075001284 -0.021773063 -0.08005542
-0.010229563 -1.9645417e-38 -0.050913274 -0.08459797 0.039598025 -0.5128588 -0.00237856 -0.39545622
0.37805516 0.0010372697 -0.07187675 0.033492126 0.25938973 1.383009e-39 -3.994755e-38 0.020633243

fcn.2.bias f4 [59]
00000000: 05dd 22bd 7b38 1abb e704 bcbd 2f8f d4bd
00000010: 7b8d 14bb 0158 2a3c 5f01 6a3c efa2 d9bd
00000020: f677 d639 e0df ce3b df6a 143b 7c75 b0bb
00000030: 9168 50b9 8778 bc3c bd7d 05bd f0b4 883b
00000040: a376 853b cd13 c9b8 545f a7b9 6c10 29bb
00000050: 5782 64bc 79a5 6d3b 0ff1 ebbc dd7e aebd
00000060: 6b73 f4bd 24de cfbd eb5c 0bbe 1816 82ba
00000070: 1d33 0bbd e0dd 333c 88b7 b9bd ff52 e53c
00000080: 6f18 d1ba 8998 abbd 5cff 23bd 10a0 d13c
00000090: f8ed 0a3b 6e5f 67bc b67f 01bd 7b48 1a3d
000000a0: 465e e839 4b42 0abd 4323 093d 0902 3bbc
000000b0: 9323 3fbb 4ba6 54bb 7d4e 5b3b 0a27 f93c
000000c0: a1e5 07be 6372 e7bd 8a22 253d d8fe d83b
000000d0: 8050 083d e578 693d 13cd e73c ff3f e8b9
000000e0: 6230 003d a59e 93bd 4505 b5bd
-0.039761562 -0.00235322 -0.091806225 -0.103788726 -0.0022667337 0.010396958 0.014282553 -0.1062678
0.0004090664 0.006313309 0.0022646708 -0.005385099 -0.0001987538 0.02300669 -0.032590616 0.00417196
0.0040729805 -9.588115e-05 -0.00031923747 -0.0025797142 -0.013947091 0.003626196 -0.02880147 -0.08520291
-0.11936077 -0.10149792 -0.13609664 -0.0009924797 -0.033984292 0.010978192 -0.09068209 0.027993677
-0.0015952716 -0.08378703 -0.04003845 0.025589019 0.002119897 -0.014121873 -0.031615935 0.03766678
0.00044320727 -0.03375463 0.033480894 -0.011414059 -0.002916549 -0.003244775 0.003346353 0.030414123
-0.1327119 -0.113011144 0.040316142 0.0066221766 0.033279896 0.05700006 0.02829603 -0.0004429817
0.03129614 -0.072079934 -0.08838896

fcn.2.weight_g f4 [59, 1]
00000000: 0b0f ac3f 4fc5 0f40 a6f2 d03e d2f7 d53e
00000010: 49a5 4640 01c5 aa40 4879 1e40 a10d f43e
00000020: cd1c 2840 1ef4 5340 e4d8 7540 c17c 0440
00000030: 0b31 2740 651f bf40 b98f e93e a794 f43f
00000040: 5288 2e40 0f96 2740 d348 ff3f 9364 0940
00000050: f344 4940 77a5 0340 76df c03f e721 de3e
00000060: 28be e63e 9a2d d73e 0670 ed3e 6791 7c40
00000070: d357 a63f 751f f840 ad3d e83e d17d 9540
00000080: eb5a e93f 6ad8 b13f b56e da3e 4d07 9440
00000090: c240 2040 2bf0 d53f 534c 3b3f c9dc 5340
000000a0: 8c66 1040 074a be3f c115 5140 7e4c 0040
000000b0: ffc4 ff3f 4c29 9d3f b4f7 b440 1c94 9940
000000c0: c4b9 de3e 6c25 cc3e bd33 bd40 3164 2440
000000d0: 15a2 c840 d375 4040 6e01 6740 46d5 2b40
000000e0: 026e c740 de03 733f 546e c23e
1.3442091 2.2464178 0.40810126 0.41790634 3.1038382 5.3365483 2.4761524 0.47666648
2.6267579 3.3117747 3.841363 2.0701144 2.6123683 5.9725823 0.45617464 1.9107865
2.7270703 2.6185338 1.9944099 2.1467636 3.1448333 2.0569742 1.5068195 0.4338524
0.45066953 0.4202698 0.4637453 3.9463747 1.2995552 7.75384 0.45359555 4.6716084
1.8230871 1.3894169 0.42662588 4.625891 2.5039525 1.6713918 0.73163337 3.3103507
2.256259 1.4866341 3.2669528 2.0046687 1.9981993 1.2278228 5.655237 4.7993298
0.43501103 0.398723 5.9125657 2.5686152 6.2697854 3.0071914 3.6094623 2.6848922
6.2321787 0.94927776 0.379748

fcn.2.weight_v f4 [59, 64]
00000000: cb6c 19bd ba62 45aa 7c6f 1a3e b706 aebb
00000010: cd52 39bd 4274 26bd 87f9 b13d bae3 603e
00000020: 4250 b2ba 2686 7b3d 5a3b 8abc f7fb 763e
00000030: 6367 7fbd 1909 023f 4ee5 563c 660c bc3d
00000040: fde2 92b0 0370 fdbb 624a 973d eac1 a53d
00000050: d3ec 10bd 77a7 493b 2397 be3e dbf4 ddbc
00000060: e348 f1bb 76f6 983c 263c cd3e edf7 f1bd
00000070: 60d4 393d 89dc 37bd aeb3 a93d 47a0 97bb
00000080: feb1 6b3c d3c2 e43c 49a3 93bb 1ea0 0d3c
00000090: dd34 cc3c 687b ff3b 10f8 bf3b eff3 57bd
000000a0: 678c 9332 f508 5fba efb1 febc 3e80 1fbe
000000b0: 9286 233e 4964 673c 5faf 0c3f 1b02 0dbd
000000c0: 4f40 00bd bd4f be3c acb7 803d 688e 6611
000000d0: 6c87 233d aeda ee3d 215f ef3c 7b04 a43d
000000e0: 8756 333a d4fc b0ba 6b72 2cbb b7e9 973d
000000f0: e576 873c f105 debd 6e9a b53c adfe b7bb
00000100: d9ac 2cbc 3ad2 ac81 e579 03bc 4283 bf3c
00000110: 643f 8e3f 7da8 4b3f a838 843f 560b 36b8
00000120: fa3d c7ba 08d4 193f f70c 7fbb 77a1 a23d
00000130: 10c5 473f b826 77be e993 1cbc fe5e 4d3f
00000140: f751 5602 6797 f23b f35a 763d 2fc0 dfba
00000150: 1127 aa3d d4bc 91bb d87f 9d3c 4b8c 393d
00000160: d9bd 283e cb28 533c 0c18 903c 29fb 9d3e
00000170: 2f96 f1ba cb23 e23c 4037 673f 278e c0b8
00000180: 460a dc3e 50e7 94ba 39c3 bf3c c8d0 de3e
00000190: 5b0a ba3e 088d b2bb d33e a03c cab0 54bb
000001a0: 122e 9902 f81f 9738 2864 9b3e 62e1 a2bd
000001b0: 1b3b b53f 14b4 793e 115f 8bbd 7516 943d
000001c0: fe2b 123d 2893 3abc 12e7 273b fd69 9022
000001d0: d243 ec3e cb86 e3b9 37ba 463a 6085 b2ba
000001e0: bf9f 393d c9bf cebc 9d96 38b8 a7f6 053f
000001f0: 0973 77bb 1c9d 1dbd f6d3 693e bb23 86ba
00000200: 0cdf 0abe a73f 113e fdf9 8fbc e57f cebc
00000210: 31aa d6bd c8c5 9a3d a360 ecbd 8c9f c6bd
00000220: e30c 16be f22f 293a 7668 cabc 8c4a f4bd
00000230: 8140 c6bd 32f2 91bd 8757 373d a35a e93d
00000240: 6ab7 513d cec5 003c 3dd3 f03d 86d3 8ebd
00000250: a397 a7bd 315e 77bc 6a2d 9fbb b61b fdbd
00000260: 362d ebbd cb93 503d 39d7 21bc 0cc8 3abd
00000270: 8051 2abd a826 edbd 69cd b8bd a7be f5bd
00000280: df21 a2bd e431 2f3d ebe0 86bd 08ba 01be
00000290: 9d02 aabb 4be4 e3bd f577 a23d f20b 9e3d
000002a0: 6af2 e5bd 7470 373d 1ff9 00be 5eb1 7ebc
000002b0: 349a 1cbd 237b d9bd 8ebc a8bd 9baa a1bd
000002c0: 1c57 9c3d 2f09 63bd 06d6 4c3d 39db 943d
000002d0: 1513 18bd 511b 9cbd b1ea 143d c864 e2bd
000002e0: d605 54bd b8c7 72bd b83c 443d 5f8c 403d
000002f0: 9371 aabd 7b58 673d 923c ecbd 8d33 67bc
00000300: a5f9 b83c b6e3 e83d f09d c93c 5ba0 d2bd
00000310: f37d 173d 9ac9 3fbc 3878 10be 65cc 81bd
00000320: 0172 273d f420 0abe b0d9 5b3d a3cf 9bbd
00000330: bf33 bd3a 4eae 02bd 57b6 68bd aceb c03d
00000340: c1bd b73d f642 7abd f59d 563d 78c2 96bd
00000350: d0cc 1bbd 7198 c53c 3843 153d ad31 e33d
00000360: 8cac dd3d 79d1 743d 268a b33d 24ec cf3d
00000370: ed61 a83c 199f 73bd c67f 34bd 2114 afbd
00000380: ef69 c83d da5f 24bc 1dbc e3bd 6a7d 8cbd
00000390: 264b fb3c b4fd 38bd 19de 893d 2b35 8c3d
000003a0: bbdd 033e 0f3d 0bbe 48ad 46bd f3f1 0fbe
000003b0: 858a 793d df4d 00be 4521 c3bd ac51 293d
000003c0: 0d83 a83c ec0e bbbd 31c0 5fbd 6674 e7bd
000003d0: c893 f3bd a6bb 85bc 9e72 703d 00fd 8fbd
000003e0: 17fc fd3c 7304 3ebd 0d15 0ebe 2153 733d
000003f0: 6230 82bd 3c98 453d d263 0dbe aa1a 0abe
-0.03745727 -1.7531368e-13 0.1508159 -0.005310859 -0.04524498 -0.040638216 0.08690172 0.21961871
-0.0013604241 0.06140723 -0.016874004 0.24119554 -0.062354457 0.5079513 0.013116194 0.09182052
-1.0687412e-09 -0.0077343 0.07387234 0.08093627 -0.035382103 0.0030769983 0.37224683 -0.027094295
-0.007363425 0.01867221 0.40084952 -0.11814866 0.045368552 -0.044888053 0.08286224 -0.004627261
0.014385698 0.02792493 -0.004505549 0.008644132 0.02492755 0.0077966936 0.005858429 -0.052722868
1.71769e-08 -0.00085081096 -0.031090705 -0.15576264 0.15969303 0.014123031 0.54955095 -0.034425836
-0.03131133 0.023231382 0.06285033 1.8187683e-28 0.03992407 0.116628036 0.029220166 0.08008667
0.00068412017 -0.0013503083 -0.0026313316 0.074176244 0.016536186 -0.10840977 0.022168364 -0.0056150765
-0.010539257 -6.348448e-38 -0.008024667 0.023378018 1.1113095 0.7955397 1.032979 -4.340274e-05
-0.0015200966 0.6008916 -0.003891764 0.07940953 0.7803507 -0.24135864 -0.009556749 0.8022307
1.574576e-37 0.0074033025 0.06014533 -0.0017070825 0.083082326 -0.004447559 0.019226 0.04529981
0.16478671 0.012888144 0.017589591 0.30855682 -0.0018431599 0.027604958 0.9031868 -9.1817514e-05
0.42976588 -0.001136044 0.02340852 0.43518662 0.36336026 -0.005448941 0.019561207 -0.0032454007
2.2507773e-37 7.206196e-05 0.3034985 -0.079531446 1.4158663 0.243851 -0.06805242 0.07230846
0.035686485 -0.011387624 0.0025619906 3.9143498e-18 0.46145493 -0.00043397243 0.0007580849 -0.0013620071
0.04531836 -0.025237935 -4.4009288e-05 0.52329487 -0.0037757775 -0.03847991 0.22834763 -0.0010234037
-0.13561648 0.14184438 -0.017575258 -0.02520747 -0.1048168 0.07557255 -0.115418695 -0.096984
-0.14653353 0.0006453983 -0.024708014 -0.11928281 -0.09680272 -0.07126273 0.044761207 0.11394241
0.051200308 0.00785966 0.117590405 -0.06973939 -0.08183219 -0.015098141 -0.0048577087 -0.12358801
-0.11483233 0.050922196 -0.009877973 -0.045600936 -0.04158163 -0.11579639 -0.09023554 -0.11999255
-0.07916617 0.04277219 -0.065858684 -0.12668622 -0.0051883 -0.11127528 0.07933036 0.07717122
-0.112278774 0.044784978 -0.12595032 -0.015545217 -0.038232997 -0.106191896 -0.08239089 -0.078938685
0.07633802 -0.05542868 0.050008796 0.07268376 -0.037127573 -0.07622398 0.03635663 -0.11054379
-0.051763378 -0.059272498 0.04790947 0.04700887 -0.08322444 0.056480866 -0.1153499 -0.014111412
0.022579977 0.113715574 0.024611443 -0.10284492 0.03698535 -0.01170578 -0.1410836 -0.06337813
0.040880207 -0.13489133 0.0536744 -0.07607963 0.0014434977 -0.03190451 -0.056814518 0.09419951
0.089717396 -0.061099015 0.052396733 -0.07361311 -0.03803712 0.024120541 0.036441058 0.11093459
0.10823926 0.05977008 0.08766584 0.10152462 0.020554507 -0.0594779 -0.044067167 -0.08548761
0.0978583 -0.010032618 -0.11119864 -0.06859858 0.030675482 -0.045163825 0.06731815 0.068460785
0.12877552 -0.13597511 -0.048505098 -0.1405714 0.06092312 -0.12529705 -0.0952783 0.041337654
0.020570302 -0.091337055 -0.054626647 -0.11301498 -0.118934214 -0.01632483 0.058703057 -0.07030678
0.031003995 -0.04639096 -0.13875218 0.05940545 -0.063568845 0.048240885 -0.1380761 -0.13486734

fcn.3.bias f4 [64]
00000000: 33de 3c3b 48d4 f83b 7188 b3bd 96e9 403e
00000010: cf34 3c3d 9946 3b3d d9c2 cc3d 1249 59be
00000020: edbc 62bd 875b 81bd a43b 2bbe 3a1e f93d
00000030: 6c3a 353d 7968 06be c362 76be e849 3d3e
00000040: 1410 123d 872e 8cbd f0a0 7e3c 5392 023e
00000050: 372b 893e 9053 103e f991 7ebd c8b5 783a
00000060: 8289 dcbd a20b a23c 1f2b 16be 3f4c 94be
00000070: f7eb dfbd 1622 34be 957c 74bd 3070 58be
00000080: 40fb 42be 4908 fbbd fa2b dcbd 3834 2c3d
00000090: 0a3e 103e ad57 4dbd b3fd c43c 9a50 e73d
000000a0: f323 f8bd bba0 853c 203c d0bd 919b 8dbe
000000b0: 592f 25bd 7e9a 23bc 47f0 503e 8323 08be
000000c0: 819c 24be d283 d23c ee5a 40be e1a1 313c
000000d0: ffce 20be 04dc 65bd 9eec c7bd 5262 35be
000000e0: 18ea 04be 98e7 fbbd f90b 51bd bca7 d73c
000000f0: 46cd d33d 547b dcbd 7dcc 67bd 1d46 aaba
0.0028818964 0.0075936653 -0.087662585 0.18839106 0.0459488 0.045721624 0.09998102 -0.2121928
-0.055355955 -0.063162856 -0.1672197 0.121639684 0.04424517 -0.1312579 -0.24061112 0.18485224
0.035659865 -0.06844812 0.0155413 0.12751131 0.26790783 0.14094377 -0.06215093 0.0009487537
-0.10768415 0.019780938 -0.14664887 -0.2896442 -0.109336786 -0.17591128 -0.059689123 -0.21136546
-0.19041157 -0.1225744 -0.10750575 0.042041987 0.14086166 -0.050132442 0.024046754 0.112946704
-0.12116232 0.016311994 -0.10167718 -0.2765775 -0.040328357 -0.009985564 0.20404159 -0.13294797
-0.16075327 0.025697622 -0.18784687 0.010841818 -0.15703963 -0.056118026 -0.09761928 -0.17713287
-0.12979925 -0.123000324 -0.05103681 0.0263251 0.10341887 -0.107657105 -0.0565915 -0.0012990866

fcn.3.weight_g f4 [64, 1]
00000000: 7237 b03f e6c0 c03f b6be 813f db2b 463f
00000010: 4866 b93f 9f46 a03f aa8b 4b3f 0bdd 1f3f
00000020: 736d 553f 7151 543f ec2f 2a3f 2d9c 5b3f
00000030: fcc2 7a3f e02a 9b3f b50d 0b3f 3102 263f
00000040: 329b 5d3f ebb0 9e3f cc90 0640 fc39 d93f
00000050: f7a2 1f3f 18f3 813f 32b1 253f 8be4 9d3f
00000060: c03c 133f a3c5 0040 bacf 863f 2a26 053f
00000070: b68a 183f e092 103f 4183 313f e884 0c3f
00000080: 1418 1f3f f503 2b3f 3dff 3f3f 9f42 943f
00000090: ecab 6c3f cd75 473f 64bc 733f c7dd 783f
000000a0: b196 283f 2397 e33f 30a5 0b3f cb7c ef3e
000000b0: 713a a03f d547 de3f 5c91 103f 2546 483f
000000c0: a05f 2b3f 0b7e 973f eb34 043f 2bf5 ac3f
000000d0: 5e8a 103f 644f 3f3f cabd 143f ae01 ad3f
000000e0: 1012 2a3f 4382 393f 6627 d83f b120 d33f
000000f0: 2489 3b3f a359 363f 1aba 333f ed00 ac3f
1.376692 1.5058868 1.0136325 0.7741067 1.4484339 1.2521552 0.79509985 0.6244666
0.8337013 0.8293677 0.6647937 0.8578518 0.9795377 1.212246 0.5431779 0.64847094
0.86564934 1.2397741 2.1025877 1.697082 0.6235804 1.0152311 0.64723504 1.2335371
0.5751457 2.0120628 1.0532143 0.5201136 0.59586656 0.56474113 0.693409 0.548903
0.62146115 0.6680291 0.7499884 1.1582831 0.9244983 0.77914125 0.95209336 0.97213405
0.65854937 1.7780498 0.5454893 0.46774897 1.2517835 1.7365671 0.564718 0.7823203
0.6694279 1.183534 0.51643246 1.3512319 0.5646113 0.74730515 0.58102095 1.3516138
0.6643381 0.7246439 1.6887023 1.6494352 0.73256135 0.71230525 0.70205843 1.3437783

fcn.3.weight_v f4 [64, 64]
00000000: 1885 bf3b a48c d73e 508c 0080 c815 4f81
00000010: 440e 97be 8f58 d83f 4159 5a3c ffaf 0b82
00000020: 380a 823b 0f78 27bc 711b bd39 aafc 3a3d
00000030: 6f9f aa3b 922a 21bc 085a e5b0 84ce 4f3d
00000040: a7bf 443c 6f06 a93b cb23 b93b 6362 373c
00000050: 2992 73bc 1922 a7bb cf3b f33d 2a2b 26b6
00000060: e3f4 518d 5069 7c80 59d3 caa1 fec6 5abe
00000070: ff1a 95bd 66d0 f93f 419c 0601 1ed1 e73b
00000080: 8c86 fa3e f759 ec3b 1630 4b82 6ded c33c
00000090: 193e a73b 4a31 e83e a5e3 42bd a856 cd3c
000000a0: 8b4e c83e 3338 a1be 5c2b 843c 0b19 43bd
000000b0: c81b bc3c 7a6d bf3c ae18 613f be8c f1bb
000000c0: f94d 13b6 b640 7202 4b67 cf3d 1f98 5dbb
000000d0: 20c3 ad3d 5995 21ba 50bb ec3b 3012 c23b
000000e0: 9ffc d93d 8cda b53d 7821 c138 471e 4fbb
000000f0: 4388 a2ba 666e beba 1e7d 99bc a3b3 c1bb
00000100: 7fd3 00ba 4435 b3bc ee40 2400 a89d a632
00000110: 8da9 1fbd ac7b 123d ac82 cb3a 5f8f 6539
00000120: ed22 0cbb ddd9 863c ad8e 9fbb 0858 67bb
00000130: 490e 02b9 8b6d aabb ba22 27b3 be75 40bc
00000140: 6247 0abd 5ac8 01bb 305b 0ebb c263 b2ba
00000150: f7c9 653c 8e6d 3f39 167e e8bc 9214 d4b6
00000160: 752b 89a5 f538 9224 562e c2a2 d6ee 71bd
00000170: baf1 e0bd 163e 153d b2cb b022 ca30 1f3d
00000180: 81b6 bebc 7ba2 63bb 9ea9 2a13 052a 463e
00000190: a432 2bba 7474 0fbd e488 f3bb caa8 cc3d
000001a0: 2df1 eabc b55b 1cbe 6ddf 033d 4c82 d63c
000001b0: ba0c fbbc 8b43 ebbb d5f4 493d d06d 96bc
000001c0: eb4f 84a2 09c0 9e80 57b4 ae3d 8a07 5a3d
000001d0: 1a31 a33c 00bb f93c 2117 0e3d 3cd4 4eba
000001e0: 76d1 383d 437d d13b 2924 0e2e 981a a5be
000001f0: 37f3 71bc c529 eabd 58d4 91be 55fb 6dbb
00000200: 263c 06bb a423 c739 b399 112b 0477 3039
00000210: 2f08 4a3e 49ed 31bb d8c7 323d 8a89 17ae
00000220: 4047 273b 525a e5bd 7418 02bd 8e1e aa3c
00000230: d7d0 703b 6427 bfbd 98ca a7ae fadc 5c3b
00000240: b805 a63d c6a5 e83a 2066 89bb 2d00 c6bc
00000250: 7144 213e 963f c63d 18cd 8e3d 52b5 b6b8
00000260: 0402 82a3 ca76 269c 397f 9a2d 9629 80bd
00000270: c058 003d d446 19bb e9db 03b7 86b8 79be
00000280: 63cf 573d 5dbf 07bc c241 30ae 0ae2 47be
00000290: f19c ff3a de8c e63d cae4 813d e148 3fbd
000002a0: 0e7d 883d ed70 ecbc 78b4 1bbe 6fae f63d
000002b0: 431d 41bc d782 2c3d 0c4f 203e 0d42 bcbd
000002c0: c8c9 fa18 0211 a2a4 05cd 5bbd 01ee 23be
000002d0: abb9 5cbd b757 dabd d52a 5cbe dd9e 553b
000002e0: 2b91 ebbd 78b3 9c3c 7b0d c1ab 302a 1fbc
000002f0: 553f 86bc 43ac 8dbb b408 523e e7ed 8ebe
00000300: 082d 45bd da1c bcbb 1a5f 7baa 4863 9ea8
00000310: 38e5 ee3d 49af 0a39 8467 e13c 86f5 71ac
00000320: e944 f8ba 9b02 3e3e 0e09 e2bd 78ec a9bc
00000330: da80 10bb 14a2 6abe c5eb 0fba a168 debb
00000340: 6f7c 82bc c560 60bb e968 c6bb fa0f 36bc
00000350: 9b4f 503e 039d 1e3e f732 bd3d 5ee1 7530
00000360: 3b69 aab9 7aa3 4a36 754f f537 0065 b03d
00000370: d0da 39bd 6090 9eb9 d1fd ca31 d8c6 8bbd
00000380: f643 53bc 0b5d 24bd 163a 1f33 9a00 75bd
00000390: 7041 63bb 28e7 f3bc 8190 8b3b 18e7 d2bd
000003a0: 6807 6abc 1cf4 28bd 7218 07bd fc66 723d
000003b0: 6963 16bc 88c2 f4bc f303 c1bd 9707 4ebd
000003c0: c901 93b2 197a a130 243f 5b3c 3b37 ba3d
000003d0: afeb e43c 1d35 90bd f760 31bd 35e2 24ba
000003e0: 3ed0 2dbd a0ec 9b3e 97ac 3029 d588 5f3b
000003f0: 279d 063b b6f7 91bb 085e 2abe 0331 f2be
0.0058447234 0.42099488 -5.0335e-41 -3.8035523e-38 -0.2950307 1.6902026 0.013326944 -1.0262616e-37
0.0039685033 -0.010221495 0.00036069335 0.045651115 0.0052069942 -0.00983681 -1.6687531e-09 0.050734058
0.012008584 0.0051582376 0.005650019 0.011192891 -0.01486639 -0.0051005003 0.11876642 -2.4761052e-06
-6.469787e-31 -1.142538e-38 -1.3743996e-18 -0.21364972 -0.0728054 1.9516723 2.472402e-38 0.0070744893
0.48930776 0.007212873 -1.4927885e-37 0.023916924 0.005103838 0.45350105 -0.04758038 0.025065735
0.39122424 -0.3148819 0.016133957 -0.047631305 0.022962466 0.023367632 0.87928283 -0.007371514
-2.1950093e-06 1.7797923e-37 0.101271234 -0.0033812595 0.08484483 -0.0006163917 0.007224478 0.0059225783
0.10643887 0.08879575 9.209191e-05 -0.003160374 -0.0012400228 -0.0014528751 -0.018736418 -0.005911307
-0.0004914328 -0.021875985 3.32937e-39 1.9396637e-08 -0.038980056 0.035762474 0.0015526614 0.00021892552
-0.0021383122 0.016461307 -0.004869303 -0.0035300273 -0.00012403088 -0.005201047 -3.89143e-08 -0.011746822
-0.033759482 -0.0019803257 -0.0021721832 -0.0013610052 0.014025203 0.00018255992 -0.028380435 -6.320487e-06
-2.379516e-16 6.3413896e-17 -5.2632865e-18 -0.059065662 -0.10983606 0.036436163 4.7920566e-18 0.03886489
-0.023280384 -0.0034734297 2.1540644e-27 0.19351967 -0.00065306784 -0.035023168 -0.00743209 0.099931315
-0.028679455 -0.15269358 0.032195497 0.026185177 -0.030645717 -0.0071796826 0.049305756 -0.01836291
-3.586329e-18 -1.4578898e-38 0.08530491 0.053229846 0.019920874 0.030484676 0.034690026 -0.0007889902
0.045121633 0.006393106 3.231918e-11 -0.32246852 -0.01476746 -0.11433748 -0.28482318 -0.0036313136
-0.0020482629 0.00037982792 5.172765e-13 0.00016829005 0.19729684 -0.002714949 0.043647617 -3.4455584e-11
0.0025524646 -0.11198868 -0.0317616 0.020766523 0.0036745572 -0.09333685 -7.6302686e-11 0.0033701048
0.081065595 0.00177496 -0.0041930825 -0.024170006 0.15748765 0.09680097 0.06972712 -8.71221e-05
-1.4095482e-17 -5.5078324e-22 1.7564271e-11 -0.06257932 0.03133464 -0.0023388164 -7.85941e-06 -0.24386796
0.052688014 -0.008285371 -4.007617e-11 -0.19519821 0.0019501728 0.11257337 0.06342466 -0.046700362
0.06664477 -0.028862441 -0.15205562 0.12044989 -0.011786762 0.042116966 0.15655154 -0.09192286
6.4827232e-24 -7.028511e-17 -0.05366232 -0.1600876 -0.053888004 -0.106612615 -0.21500714 0.003259591
-0.11502298 0.019128546 -1.3717216e-12 -0.009714648 -0.016387621 -0.0043235137 0.20511132 -0.2791588
-0.04813865 -0.005740744 -2.2326273e-13 -1.758458e-14 0.11664814 0.00013226004 0.02751518 -3.4384453e-12
-0.0018941435 0.18555681 -0.11036883 -0.02074264 -0.0022049458 -0.2291339 -0.00054901495 -0.006787375
-0.015928475 -0.0034237367 -0.0060549867 -0.011112208 0.20342867 0.15489583 0.092382364 8.9450747e-10
-0.0003250333 3.0195501e-06 2.9243276e-05 0.08613014 -0.04537469 -0.00030243676 5.9078293e-09 -0.06825036
-0.012894621 -0.040127795 3.70729e-08 -0.059815027 -0.0034676455 -0.02977331 0.0042591696 -0.10297984
-0.014283992 -0.041248426 -0.032982297 0.059180245 -0.009178975 -0.029877916 -0.094245814 -0.050300207
-1.7113864e-08 1.1748994e-09 0.013381753 0.090925656 0.027944414 -0.070413806 -0.043305364 -0.0006289811
-0.042434923 0.30453968 3.9229548e-14 0.0034108658 0.0020540447 -0.0044545783 -0.16637433 -0.47303018

fcn.4.bias f4 [64]
00000000: 6e7a 63bc af96 173c 429c 0ebd 7f3a 043c
00000010: d797 6dbd e865 93bc e63c 623b 7275 973a
00000020: 1e11 e6bc bf8b a2b9 4aac 5fbc 2202 71b9
00000030: 9acd b13b a1d4 caba 78d1 173c 3173 8ab9
00000040: 7400 8dba 29ed 10bd e16f 15bb 9a2e 7fba
00000050: bc10 dcbd 4561 1f3c be3c bfbb af8b 37bb
00000060: 0574 e6bb 2667 c2bc debb 88bb 1928 d53b
00000070: 6c02 c5ba 704a 1a3c e08e 84bb 6c19 d0ba
00000080: f578 45bc 405d 38b9 dedd 24bc bcbd c6bb
00000090: 80dd 6cbc 59a9 87bb d4df a3bd 4439 60bb
000000a0: f46d 29bc de65 9abc b77b 2eba 4d8c 67bb
000000b0: 38c2 4dbb 5743 82bd a931 46bc 82b8 12bc
000000c0: 1116 61bd 2bd6 3fbc 8cc8 e0bb 4fc3 07b9
000000d0: 3762 a7bd d0b1 ccb9 ebb0 43bd 2185 1f3c
000000e0: ac46 f1bb 090d 743b 4da2 b4bc a71f abbb
000000f0: 1095 bfbd c0ec d1bb 6e09 0dbd 3705 00ba
-0.01388417 0.009252234 -0.034816988 0.008070587 -0.058006134 -0.017992929 0.0034521162 0.0011555387
-0.028084334 -0.00031003167 -0.013651917 -0.00022984346 0.005426121 -0.0015474745 0.00926625 -0.00026407235
-0.0010757581 -0.035382424 -0.002280228 -0.0009734422 -0.10745379 0.009727781 -0.0058360985 -0.0028006842
-0.0070328736 -0.023730826 -0.004172786 0.006505024 -0.0015030629 0.009417161 -0.0040453523 -0.0015876717
-0.012052764 -0.00017582346 -0.010062663 -0.0060650986 -0.014457107 -0.004140061 -0.08001676 -0.003421382
-0.010341156 -0.018847402 -0.0006656008 -0.0035331429 -0.003139628 -0.063605 -0.012096801 -0.008955123
-0.054952685 -0.0117087765 -0.0068598446 -0.00012947361 -0.0817303 -0.00039042393 -0.047776144 0.00973633
-0.007363161 0.0037239215 -0.022050047 -0.005222279 -0.09354603 -0.0064063966 -0.03443282 -0.00048835896

fcn.4.weight_g f4 [64, 1]
00000000: 5daf 2140 0b97 9840 2e43 3240 9b45 6240
00000010: 83bb c63e ef37 4140 eed8 c640 9454 a440
00000020: ede3 0e40 c731 5640 8f5c 553f 643f d540
00000030: feb4 9b40 3896 8f40 75f8 7640 555e af40
00000040: 7c8b 9340 a0f3 0840 0cd7 6a40 c789 9c40
00000050: 9f1d c83e 9916 6d40 b95b 3040 084b 4140
00000060: 6b56 5840 1183 2540 9c8b 4940 7b01 a840
00000070: f9a8 7d40 80ed 2940 e783 8640 2836 c740
00000080: 6698 3240 b865 7940 9bd3 2240 bbbd 7140
00000090: 93f2 2c40 bb9a 3540 a9b5 d63e 17b2 7640
000000a0: 9dc1 3240 34a9 4940 b598 8540 284d 8e40
000000b0: 1209 6740 ea16 ca3e 9843 2740 5e1f 0740
000000c0: ec9b 1940 4de9 6940 0a46 5c40 fedf 5e40
000000d0: 2325 d23e c3ac 9a40 20b5 0740 f3d2 4340
000000e0: 67a2 2640 683c 6540 481d 2d40 15f5 4d40
000000f0: e34e e33e c340 5040 c0b1 1940 4e4d bf40
2.5263283 4.768438 2.7853503 3.5354984 0.38814935 3.019039 6.2139807 5.1353245
2.2326615 3.3467882 0.8334436 6.663988 4.865844 4.4870872 3.8589146 5.480265
4.610777 2.1398697 3.6693754 4.8918185 0.390851 3.7045043 2.7555983 3.0202045
3.3802745 2.5861247 3.149146 5.2501807 3.9634383 2.6551208 4.2036014 6.225361
2.7905517 3.8968334 2.5441654 3.7772052 2.7023056 2.837569 0.4193547 3.8546197
2.7930672 3.1509523 4.174891 4.4469185 3.6099286 0.39470607 2.6135006 2.1112895
2.4001417 3.6548645 3.4417748 3.4824214 0.41043958 4.833589 2.12043 3.0597503
2.6036623 3.581812 2.7049122 3.2180836 0.44396123 3.2539527 2.401474 5.9781866

fcn.4.weight_v f4 [64, 64]
00000000: c082 043c 3d55 24be 6eb9 493a b19a 85bc
00000010: 89d7 cb3c 1786 8ebc b5d0 a8bc ab50 6f3e
00000020: b85f b2bd d24e dbbd 85ff 3d3e 9647 1ebb
00000030: a095 ccbd 3182 a03e b255 7cbc 5c0c e43e
00000040: f153 83be 8818 923e d297 e13e d7b5 85bc
00000050: b130 c13c 7e56 5d3d 1de7 c7bb 2b49 bfbe
00000060: b41c 46bc d397 ddba 24de cd3e cbde 033e
00000070: 66b7 073d 2eb6 f0be d497 87be 8ac6 0abe
00000080: 69a6 92bd 7fbc d63c c6e8 683e 794a 833c
00000090: d0e6 cfba a2a6 a7be bda6 683c bad7 80bc
000000a0: b77b d5bd 0a28 87be f526 25bd 0c70 19be
000000b0: e934 0dbd 6e41 57be 030d 9dbd ee96 ae3e
000000c0: 4f4b cb3e de37 8f3d faa1 43be 7683 233c
000000d0: 51c1 afbd 2db0 a83c 1b25 9bbd e85e 11be
000000e0: b8a8 32be e97e 1fbe b4cc 8abd d04f 823b
000000f0: 3b8d 9e3d 1409 db3e 6e04 d83e 8cc3 84bd
00000100: 5fe5 1abf f3ad 81bd 0727 edbd 8dcb 8dbe
00000110: d750 0ebe fce1 9b3c 34be d3be a8dd 77bc
00000120: 90ed 27bd 2f36 b7bd 5ae4 8cbe dc73 4f3e
00000130: 1915 66bb 1eb5 4d3e 0ea4 98bd 18f1 5bbc
00000140: 1de7 c1be 4589 4b3e be20 88bd 24f7 783d
00000150: 1d6f 8e3d 915f 51be 3d23 2abe e399 193c
00000160: 9e96 9bbd 7253 a33d f533 883e a1c4 43bd
00000170: d7d2 c6bd 9f46 4cbe 2539 1abe f4a4 c0bd
00000180: 90ba 14be e37e 3bbe a833 0cbe 3a42 84be
00000190: 26f6 c0be 2777 503c fc85 4bbe 41d2 b7bb
000001a0: 0510 5abd 485d 30be 9dec 53bb 3d7e 29bd
000001b0: b4dd 71bc 595c 06bd 3706 8b3d 66df bc3d
000001c0: 4b1b 24be 20ca ffbe 0e4f debc 99a6 bfbe
000001d0: 35c8 96bc a9be 4ebe 470e 883c ce44 d9bc
000001e0: e532 a23d 73e0 96bd 9211 50bc 28f2 bfbe
000001f0: c5f2 8bbe 90a5 8cbe f705 1ebd 5efa 34be
00000200: 7bbc 82bc 3d3b 8a3c 1b3d 053d 6667 5dbe
00000210: 7a1a 313e 5057 fcbd fe8f 303e 307b 69bd
00000220: ffed 2c3d 25ab cebc 7eda 9abe 94b4 513e
00000230: 2a80 87bd ef8f d9bc 4ce8 6a3c 9d98 59bd
00000240: 6f01 a8bd 0de3 1ebc 0cd5 ddbd 1c1c 6ab9
00000250: 6c39 e7bc 1f93 183c c78c eebc 743f b43e
00000260: abda d93e a269 003e 2460 9e3c fea8 073e
00000270: f822 353d 96b5 2a3f a195 f03d 803b 003f
00000280: 6be7 64be a59b a0be 751a 9b3e 2961 6ebc
00000290: cd4d b93e 7207 b0bd 7d9b 4abc 63df 07bd
000002a0: d8c0 b83e c551 383e d584 0dbd 706d e63e
000002b0: 58aa 013e db68 26bd 9493 933e 4263 9c3d
000002c0: 5ac7 ccbd 6968 1f3e 38e5 0abe 2b28 10bd
000002d0: 8c11 2cbd 55d0 123d c5bc 21bd 451b d83a
000002e0: 9d9a 9a3e e18a 0a3d 640c fa3b f949 103c
000002f0: 482d 383e f37d 5d3d 2b54 153e 64f5 873c
00000300: be46 f2bd cd78 8bbd 016e 173c 64b9 87be
00000310: bd8e e1bb 85f7 3fbc 6f4d a8bd 8f4d 4ebd
00000320: 3c48 e2bd 8a82 77be 413f 253e 3861 70bd
00000330: f36e 11bd 1658 9cbc f181 6abd 44ab 593c
00000340: fe52 95be 17dc 16bd a38a 41bd 4926 f3bd
00000350: 4914 063c f25d 953c c9d7 23be f6b9 04be
00000360: 73b7 aabc a576 673e bc77 28bd 3751 06bd
00000370: 6be5 363d 802a 92bc 9924 00bf d187 713e
00000380: 0d6c 623e db22 74be 427e 7bbb 1208 2cbc
00000390: efbf 9ebd eda9 7e3c 433e 03bb 571f a8bd
000003a0: 7738 903e 1622 e8bd 7908 a1bd b611 883d
000003b0: 03e0 05bd f87e 24be a34d 063c e6d8 433e
000003c0: 67c8 a13c 8b3b 9abd 35bf 3dbd 9b12 84be
000003d0: 47ef bcbd baaf 3abe 37df c8bc e284 a1bc
000003e0: b92a 263e 2b8e a33d ab39 81bb 49c8 62bd
000003f0: a1d9 d9bc f11f 80be 4945 583c 1606 a9bc
0.008087814 -0.16048141 0.00076951727 -0.016309114 0.024883049 -0.017397923 -0.020607332 0.23370616
-0.08709663 -0.10708393 0.18554504 -0.0024151555 -0.09989476 0.31349328 -0.015401291 0.4454068
-0.2564998 0.2853434 0.44061142 -0.01632206 0.023582788 0.054037564 -0.006100549 -0.3736051
-0.012091804 -0.0016906209 0.40208542 0.12877958 0.033133887 -0.47013992 -0.26483023 -0.13552299
-0.071606465 0.026212929 0.22745046 0.016026722 -0.0015861634 -0.32744318 0.01419991 -0.015727866
-0.10423987 -0.26397735 -0.040320355 -0.14984149 -0.034474287 -0.21021053 -0.076684974 0.34099525
0.39705893 0.06993078 -0.19104758 0.009980073 -0.08581794 0.02059182 -0.07575437 -0.1419636
-0.17447174 -0.15575756 -0.06777325 0.0039767995 0.07741781 0.42780364 0.4219088 -0.0648261
-0.6050624 -0.06332006 -0.115797095 -0.2769436 -0.13898025 0.019028656 -0.4135605 -0.015128531
-0.04099804 -0.089458816 -0.27517968 0.2025904 -0.003510779 0.20088622 -0.07453166 -0.01342418
-0.37871638 0.19876583 -0.0664687 0.060782567 0.06954787 -0.20446612 -0.16615005 0.009375068
-0.07597087 0.079749 0.2660214 -0.04779494 -0.09708183 -0.19948815 -0.15060861 -0.09406462
-0.14524293 -0.18310122 -0.1369158 -0.25831777 -0.37687796 0.012723721 -0.1987533 -0.005609781
-0.053237934 -0.17223084 -0.0032337077 -0.041380156 -0.014762331 -0.032802913 0.06788295 0.09222297
-0.16026036 -0.49958897 -0.027137306 -0.3743179 -0.018406013 -0.20189919 0.01660837 -0.026522066
0.079198636 -0.07367029 -0.012699502 -0.37489438 -0.27333656 -0.27470064 -0.038579907 -0.17673633
-0.015959015 0.01687395 0.032528978 -0.21621475 0.17295256 -0.12321341 0.17242429 -0.057002246
0.04221916 -0.025228092 -0.3024482 0.20479041 -0.06616242 -0.02655789 0.01433761 -0.05312406
-0.082033984 -0.009697688 -0.10831651 -0.0002232645 -0.028225623 0.00931242 -0.029119862 0.3520466
0.42549643 0.12540296 0.019332953 0.13248059 0.044222802 0.6668333 0.117472894 0.5009079
-0.22353904 -0.31368747 0.30293623 -0.014549532 0.3619217 -0.0859517 -0.012366173 -0.033172023
0.36084628 0.17999943 -0.034550507 0.4500537 0.12662637 -0.04062734 0.2882353 0.076361194
-0.09998961 0.15567173 -0.13564003 -0.035194557 -0.04200892 0.035843212 -0.039486665 0.0016487619
0.30196086 0.03382385 0.0076308716 0.008806699 0.17986023 0.054075193 0.14582889 0.016596504
-0.11829899 -0.0681015 0.009242536 -0.2650863 -0.006883471 -0.011716728 -0.08217894 -0.050366934
-0.11048934 -0.2417089 0.1613741 -0.058686465 -0.0355062 -0.019084971 -0.057252828 0.013285462
-0.2916488 -0.036830988 -0.047251355 -0.11872537 0.008183547 0.018233273 -0.16000284 -0.12961563
-0.020839429 0.22603853 -0.041129813 -0.032792296 0.044652384 -0.017842531 -0.50055844 0.23586966
0.2211153 -0.23841421 -0.0038374816 -0.010499971 -0.07751452 0.015543443 -0.0020026125 -0.082091026
0.2816808 -0.113346264 -0.07862944 0.06644003 -0.032684337 -0.1606406 0.008197221 0.19125709
0.01974888 -0.07530888 -0.046324927 -0.25795445 -0.09225326 -0.18231097 -0.0245205 -0.019716684
0.16227235 0.07986101 -0.003943642 -0.055366788 -0.026593031 -0.2502437 0.013200113 -0.020632785

fcn.5.bias f4 [64]
00000000: 110c 553d 9b45 a8bd b7cb 0bbe 94d3 f13c
00000010: c971 593d eb47 3c3d 84bc 463d 152f 613d
00000020: 94cb d43c 0a24 063d d7a4 cf3c 940c 463d
00000030: 810a 393d 21e8 2f3d e066 07be c7ba 41bc
00000040: 5b6f 523d 6e7c 163d 3b09 41be b041 173d
00000050: d35d d33c f8bf 573d 8065 1abe b7a9 09be
00000060: 75cf ccbd 3436 bebd ad2e f0bd 63f2 203d
00000070: 6ae7 d2bd a8c8 c6bd 75a1 0b3d 5d24 2d3d
00000080: 226a 573d f30f 343d 92d9 543d 384b 483d
00000090: 5650 3abe 290b cabd c54e 483d 6ee3 acbd
000000a0: c62c 2d3d 80aa 3b3d 3e91 553d c42f 81bd
000000b0: cd3f d7bd 8ac1 513d 7de0 8cbd 4e0f de3c
000000c0: 2972 efbd 4986 0e3d 8429 ef3c 560b 4d3d
000000d0: 750d 60bc 8638 393d 90cf debd 86a6 dcbd
000000e0: 2337 cf3c 9575 a2bd f28b 3e3d fad7 1a3d
000000f0: d451 cb3c 56ea 543d 2b00 c93c 33c3 523d
0.05201346 -0.08216401 -0.1365193 0.029519834 0.05308703 0.045967024 0.048519626 0.05497654
0.02597598 0.032749213 0.025347156 0.04835184 0.045176033 0.042945985 -0.13222837 -0.011824316
0.051375728 0.03673976 -0.18851177 0.03692788 0.025801575 0.05267331 -0.15077782 -0.13443647
-0.10000507 -0.09287682 -0.11727653 0.039293658 -0.10298045 -0.09706241 0.034089524 0.042271007
0.05259145 0.043960523 0.051965304 0.04889986 -0.18194708 -0.0986541 0.048903245 -0.08441816
0.042279027 0.0458169 0.052140467 -0.06307939 -0.10510216 0.051209964 -0.06878755 0.027106907
-0.11691696 0.034796033 0.0291946 0.05005964 -0.013675083 0.04521992 -0.10879433 -0.10773949
0.025294846 -0.07932583 0.04652018 0.037803628 0.024819292 0.051981293 0.024536213 0.051455688

fcn.5.weight_g f4 [64, 1]
00000000: 4ccb ad40 a4aa df3e c172 ce3e ff1d c440
00000010: 8719 af40 8265 c940 b5ae be40 fc90 b740
00000020: 1124 9c40 532d be40 b9ee 8540 fa27 c740
00000030: cc46 cc40 5b80 cf40 f8b0 dc3e 5732 e93f
00000040: 65cc b940 23f8 be40 5cee 9e3e 58d0 bd40
00000050: 779b a640 c6f6 b040 1934 ce3e 5235 cf3e
00000060: 7c4b d93e 2819 043f a125 e43e ace9 c940
00000070: 0734 0a3f 5614 e33e 0187 c540 3c52 d040
00000080: b897 ac40 4118 cb40 b7f6 b240 1662 c340
00000090: b3fd c23e f18a b43e 273b ba40 e86b c93e
000000a0: 9b3d c740 a566 bc40 2f74 b640 63d1 ec3e
000000b0: c4ac cd3e 2cbd bc40 16c9 d83e 78ad c740
000000c0: f6bb c73e 4818 c240 a3a0 c140 a7fc b440
000000d0: ee3f e43f e792 cf40 3edb c73e a969 cf3e
000000e0: 5311 c640 f3c0 f33e 5a64 c540 3e6d c040
000000f0: 2921 6f40 3c7a ab40 3119 bf40 64b7 b140
5.4310665 0.43684876 0.40321925 6.1286616 5.471866 6.293641 5.9588265 5.7364483
4.8794026 5.9430327 4.185391 6.22363 6.383642 6.4844184 0.43103766 1.8218488
5.8062005 5.96779 0.3104123 5.9316826 5.2064776 5.5301237 0.40274122 0.40470368
0.42440403 0.51600885 0.4455996 6.3097744 0.5398564 0.44351453 6.17273 6.5100384
5.3935204 6.3467107 5.5926166 6.1057234 0.38084182 0.35262254 5.8197207 0.39340138
6.22627 5.88753 5.7016826 0.462535 0.40170872 5.8980923 0.42340916 6.2399254
0.3901059 6.065464 6.050859 5.6558414 1.783201 6.4866824 0.39034456 0.405103
6.189615 0.47608146 6.1685 6.013335 3.736399 5.358671 5.971825 5.5536366
